models/MATBENCH/MEGNET/src/sae/model.blocks.2.conv.edge_func.layers.0.pkl (torch, 103240 bytes, 4 tensors)

weight f4 [192, 64]
000000 e5 ef 69 3d f6 18 27 3d 15 cd d3 bd 52 c5 a9 bc
       0.057113547 0.04079529 -0.10341851 -0.020723972
000010 5a 53 de 3d b3 e8 b3 3d 63 36 4c 3c e9 a0 cb 3d
       0.10855742 0.08784618 0.012464139 0.099428006
000020 54 bb 08 3d c3 44 3f 3d e6 cf db 3d cd 99 40 bd
       0.033381775 0.046696436 0.10733013 -0.047021676
000030 be 0e d1 3d 4a 87 d2 bd f9 b3 86 bd 42 ad ce bc
       0.1020789 -0.102797106 -0.06577296 -0.0252291
000040 e8 09 26 bd 27 fb 90 bb eb 4b c3 bc 27 5f 88 3b
       -0.04053679 -0.004424471 -0.023839911 0.0041617337
000050 df c9 8a bd ee da 00 be e5 6e ba bb 5d 55 f8 bd
       -0.06776785 -0.12583515 -0.005689489 -0.12125657
000060 fd 15 9e bd 20 e2 9c bd 93 8c e9 3d 51 67 20 bd
       -0.07719038 -0.076603174 0.114037655 -0.03916103
000070 0b 33 c2 bd 5f 69 6e bc 17 71 ca bc 8e 70 ab bb
       -0.09482392 -0.01455149 -0.024712129 -0.0052319234
000080 10 a2 96 bb a5 d4 bf 3c 12 ed 1e 3c 21 cc d8 bc
       -0.004596956 0.023416827 0.009700077 -0.026464524
000090 67 a9 a0 3d a9 c0 f8 3d 1f 39 de 3d 2c 31 a7 3d
       0.07844811 0.12146122 0.10850739 0.08163676
0000a0 40 49 88 3d 1f e2 c8 3d a5 0f c5 3c 56 59 b9 3d
       0.06654596 0.09808754 0.024055311 0.090502426
0000b0 68 3d 4e 3d 21 6d 5d 3d 56 ee d4 3b c2 06 20 bd
       0.05035153 0.05405915 0.0064981384 -0.039068945
0000c0 45 48 bf 3c af 11 b7 3d 0c 29 3c bd 97 04 b5 bd
       0.02334989 0.0893892 -0.045937583 -0.08838766
0000d0 ca fd 85 3d 0c 2d 8f bd c0 c2 90 3d 20 b3 58 3d
       0.06542547 -0.06991014 0.070683956 0.052905202
0000e0 c8 da a4 bd 2a 77 cd 3d 0f 7b 02 bd 52 df 70 3c
       -0.08049542 0.10032494 -0.03185564 0.014701681
0000f0 80 14 bf 3d 6b 0c 76 3a da 9e af bd b0 f5 42 3d
       0.09330082 0.00093860057 -0.085752204 0.047597587
000100 95 b7 ac bd 79 12 64 bd d4 4f 47 3d cb 4a 6c bd
       -0.08433453 -0.05568168 0.048660114 -0.057688516
000110 8c 7b d5 3c a1 f8 ce bd 00 fc 16 3c 92 4f 81 bc
       0.026059888 -0.10106016 0.009215355 -0.015785012
000120 4f ae 81 bd 07 8e 7e 3d f8 90 cd 3d 79 e9 37 3d
       -0.06332075 0.062147167 0.10037416 0.04490039
000130 2d 6e 7c 3d 18 5a a4 3c b5 ff 21 bd e4 71 97 3b
       0.06162851 0.020062491 -0.0395505 0.004621731
000140 66 ab 8b bd dd 34 aa 3c 63 3e ad bd 91 52 a7 bd
       -0.06819801 0.02077716 -0.08459165 -0.08170045
000150 7b 5e 6f bd 92 54 3b bd d0 93 06 3d 1a c1 8d 3c
       -0.058439713 -0.04573495 0.03285581 0.017303992
000160 ed 97 3f bd 29 69 93 bd fe 3e c0 bd 82 a7 d1 bd
       -0.046775747 -0.07197792 -0.09387015 -0.10237028
000170 67 63 26 bd 69 f2 66 bb 12 72 2c bb 67 c7 3f bd
       -0.04062214 -0.0035239703 -0.0026313108 -0.046821024
000180 38 02 c4 3c d6 e8 70 bc 2c 5d a4 3d 6d 46 50 3c
       0.02392684 -0.01470395 0.080255836 0.012712103
000190 24 c4 9e bc 38 6b 32 bc ec 0f 87 bd 1a e2 9b bd
       -0.019380637 -0.010889821 -0.06594834 -0.07611485
0001a0 9a fb 30 bd 4c 19 4e bc d1 46 e4 3d de f0 d2 3d
       -0.043208696 -0.012579273 0.1114632 0.10299848
0001b0 14 95 b6 3d 81 99 0a be 46 a2 21 bb ae 46 df 3c
       0.08915153 -0.1353512 -0.0024663373 0.027255382
0001c0 cc ae 14 bd 93 56 81 bc 57 62 12 bd 64 a0 52 bd
       -0.03629951 -0.015788352 -0.035738315 -0.05142249
0001d0 c3 d8 42 bd b2 7f b3 bd 0d cc f1 bd 10 85 14 bd
       -0.04757 -0.0876459 -0.11806498 -0.03625971
0001e0 5d 8e b8 bd 6d f8 58 3c 5b 34 97 3d 17 7b 6f 3d
       -0.09011529 0.013242823 0.07383033 0.058466997
0001f0 e1 a8 b0 bc 2c 23 0f 3c 4f 2a d2 bd c8 10 13 3b
       -0.021564903 0.008736413 -0.10261976 0.0022440422
000200 f2 fa 75 bb 5d 48 a7 bd 21 be c0 3d 45 d4 cf 3d
       -0.0037533608 -0.08168099 0.09411264 0.10147909
000210 ae 8d 8a bd 0b 03 35 3d b6 6b 90 bb 79 16 40 bd
       -0.067653045 0.044192355 -0.0044073714 -0.04689643
000220 25 5b 70 bb 4b 69 5b 3d da 20 93 3d f5 c1 c9 3d
       -0.003667542 0.053567212 0.07184 0.098514475
000230 50 12 ba 3b 98 5f 5f bd e8 46 86 bc 4e 63 3c bd
       0.0056784526 -0.054534525 -0.016391233 -0.04599314
000240 f8 d4 87 bd d9 ca d6 3b fd 83 6c bb 1e 92 56 3d
       -0.066324174 0.006554943 -0.0036089413 0.052385442
000250 7c a1 8a bd c8 1e 64 3d 13 1d 79 bd 21 25 b1 3d
       -0.06769082 0.055693418 -0.060818743 0.0864966
000260 d7 79 c3 bd 91 b0 7e 3d f1 72 80 3d 02 3a c6 3d
       -0.095447235 0.062180106 0.06271923 0.09679033
000270 ce b3 e6 3d dd 0e 38 3b c4 e7 a6 3c 89 e8 68 bd
       0.11264764 0.002808503 0.020374186 -0.056862388
000280 28 78 ae bc 77 35 43 bd 04 83 cc bd 75 39 eb 3d
       -0.02129753 -0.04765841 -0.09985927 0.114855684
000290 a7 fc e6 bd d5 db c9 3d b8 bf 83 3d 19 42 ab bd
       -0.11278658 0.09856383 0.06433052 -0.083622165
0002a0 d0 fe 04 3e 1f 8f fc 3c 29 aa e0 3d 3e 21 84 3c
       0.12987828 0.030829964 0.109699555 0.016129132
0002b0 56 e2 e9 3d 35 21 e8 bc f7 d4 45 3d e4 1a 4b 3d
       0.11420123 -0.028336147 0.048298802 0.04958619
0002c0 de 6b 0e bd da 9f b8 3d 16 1a 35 3d 48 a4 89 3d
       -0.03477084 0.09014864 0.04421433 0.06720787
0002d0 89 f4 d4 bd 89 f0 01 be 51 34 2f 3d bd 09 bc bd
       -0.10398204 -0.12689413 0.042774502 -0.09181545
0002e0 28 e4 c3 3d 49 f1 77 3d 15 c6 8b 3c 05 96 40 3c
       0.09565002 0.06053284 0.017062226 0.011754517
0002f0 52 cd 04 3e d6 70 6c bd 30 81 3c 3d e7 07 c7 bd
       0.12968948 -0.057724796 0.04602164 -0.09718304
000300 65 58 82 3d 1e 79 4d bd 85 90 1b bd 3a 70 9a bd
       0.06364516 -0.050164334 -0.03797962 -0.07540937
000310 a9 bf 82 3d e3 d8 fd 3d 07 19 61 bd bc 12 70 bd
       0.063842125 0.123948835 -0.05495551 -0.058611616
000320 32 3c 02 3d 07 2e 0b bd 35 81 d0 3d 57 6a d3 3d
       0.031795688 -0.033979442 0.10180894 0.10323017
000330 b5 fb b6 3d c4 50 6e 3d 4c 53 8c 3d b9 22 00 bd
       0.08934728 0.058182493 0.06851825 -0.031283114
000340 6a 7f 98 3d 0f 4f e6 3d 3c 32 c1 bc a4 c6 5c bd
       0.07446177 0.11245548 -0.023583524 -0.053900376
000350 75 0c fe bd 41 df 0a be f0 ee 2f 3d 16 26 90 3d
       -0.1240472 -0.13561727 0.042952478 0.07038514
000360 10 1c 98 bd a4 74 5e 39 ba 93 97 bd 09 dd 28 bc
       -0.074272275 0.00021215022 -0.074012235 -0.010306605
000370 d1 d9 a2 3d 77 d0 c2 3c 5f 0d f2 bd 65 a6 cf bc
       0.079517014 0.023781044 -0.118189566 -0.025347898
000380 85 0d f0 3c 47 eb 59 3d 68 ea d9 3d b8 bc 93 3d
       0.029303322 0.053202894 0.106404126 0.072137296
000390 cb a5 93 3d 89 60 4b 3d c2 4c b6 3c f1 51 97 bd
       0.07209357 0.04965261 0.022253398 -0.07388676
0003a0 1e 59 2c bd 57 e3 d0 bc 5b 19 e4 3d 37 f0 76 3d
       -0.042077176 -0.02549903 0.11137649 0.06028768
0003b0 39 3f 73 bd fa 07 ac bd 49 d2 d1 3d 42 be 6f 3d
       -0.059386466 -0.08399959 0.10245187 0.058531053
0003c0 c0 ec c1 3d 92 3e 8d bd 21 39 29 3d 23 44 82 bd
       0.094689846 -0.068967 0.041314248 -0.06360652
0003d0 3e 69 e3 bc 56 0c fc bc b5 16 b0 3d f2 f5 c1 bd
       -0.027760144 -0.030767601 0.08598081 -0.094707385
0003e0 4e a6 ac bd 94 2f 0a 3e 55 f4 34 3c 8b 94 de bb
       -0.084301576 0.13494712 0.011044581 -0.00679261
0003f0 22 cd 06 3c d7 05 a8 bd af 8a 9d bd 00 bb b5 bd
       0.008227618 -0.08204239 -0.076924674 -0.08873558

bias f4 [192]
000000 e9 36 6c bd dd ab b1 bd 38 77 0c 3b 72 55 ed 3d
       -0.057669554 -0.086753584 0.0021433365 0.11588563
000010 6d 3d 2a bd 21 92 75 3d e8 a8 7e 3d 9c 3b a5 bd
       -0.041562486 0.059953813 0.0621728 -0.0806801
000020 c2 d7 85 bd b0 d0 8a bc cc cd b6 bd c8 74 93 3d
       -0.06535293 -0.016945213 -0.089259714 0.07200009
000030 e4 af 72 bd 7c 00 44 bd 10 8f 2d bc 8e 0c fd bc
       -0.059249774 -0.047852024 -0.010593191 -0.030889776
000040 3e 80 3b bd 6c 25 cd 3d 19 91 c2 3d b6 1d 53 bd
       -0.0457766 0.10016903 0.095003314 -0.051542006
000050 50 50 97 3d 4d 28 bb 3d 0e 86 e7 3d 7f 1a a7 3d
       0.07388365 0.09138546 0.11304866 0.081593506
000060 fe a4 ab 3c 69 fd 3e 3d 15 a0 01 3e 94 2b 47 3d
       0.020952698 0.04662839 0.12658723 0.048625544
000070 dd 8b 45 bd 02 6e ee 3d 73 a3 26 bc 2e e1 2b bd
       -0.048229087 0.11642076 -0.010170805 -0.041962795
000080 56 a5 23 3d fd 72 0f 3d 0e 9d a7 bd 74 f5 e6 bd
       0.0399526 0.03502177 -0.08184253 -0.11277285
000090 01 4c f3 bd 42 1d 90 bd df 61 0d 3c 13 d7 c2 3d
       -0.11879731 -0.070368305 0.008629291 0.095136784
0000a0 1d ef 22 bd 37 18 84 bd 7a bc c0 3d f3 15 e2 3d
       -0.039778817 -0.06449931 0.09410949 0.11039343
0000b0 f6 8b a7 3d 2f 45 bb bd f3 db dc 3d 9f a2 9d bc
       0.08180992 -0.09144055 0.107841395 -0.019242583
0000c0 74 59 4b 3d 7c dd a7 bb 32 60 dd 3d 7c a1 cd bb
       0.049645856 -0.0051228385 0.108093634 -0.006275354
0000d0 13 25 ad 3d 3d 75 b2 bd 14 83 88 3d f0 63 fb 3c
       0.08454337 -0.08713768 0.06665626 0.030687302
0000e0 77 5a a2 3d 1f be 0c bd 6d 3d 06 3e 77 33 d2 bd
       0.07927411 -0.034361 0.1310937 -0.102637224
0000f0 1d 3b 0c 3d 59 dd dc bd c4 bb 02 be 72 41 32 bd
       0.034236062 -0.10784406 -0.1276694 -0.043519445
000100 6d 14 df 3d 9a cc 05 3d 11 5f e0 bd 4e e9 3b 3d
       0.10892568 0.032665826 -0.109556325 0.045876794
000110 d9 18 2e 3d 47 97 cd bd ab 53 ca 3d a2 e9 b2 3d
       0.042504165 -0.100386195 0.0987924 0.08735968
000120 0b 61 d2 bd 5a 3c 62 3d af 5f b0 bc cd bd 76 3d
       -0.10272416 0.055233337 -0.02153 0.060239602
000130 83 82 dd bc b0 6c 5e 3d d3 1c d7 bd b9 aa a9 bc
       -0.027039772 0.05430287 -0.10503545 -0.02071129
000140 70 f1 b5 bc 51 ea 9c bd a0 a7 2d bd bc 32 82 bc
       -0.022209853 -0.0766188 -0.042396188 -0.015893333
000150 11 47 ff 3d 8e e9 7d 3d 89 ff a7 bd ab 6f 9f 3c
       0.12464727 0.061990313 -0.08203036 0.019462427
000160 9c 40 6c 3d 48 d8 ba bd 38 8e 7d 3d 84 3f bd 3c
       0.057678804 -0.091232836 0.06190321 0.023101576
000170 f4 f8 20 3a 6c 6b 4e 3d 5e e5 d5 3c d2 bc 1f bd
       0.00061406125 0.050395414 0.026110347 -0.038998432
000180 50 58 63 3d bd 6b 4e bd 49 37 d7 3c e4 d3 0b bd
       0.055504143 -0.050395716 0.02627148 -0.03413762
000190 b9 95 07 3e 2c 46 41 bd 77 d3 12 3c 22 bd 81 3d
       0.13240708 -0.04718606 0.00896155 0.06334902
0001a0 7b bd 5d bd 15 c9 cd 3d 3f 01 36 bc ad 4d 87 3d
       -0.05413578 0.10048119 -0.0111086955 0.06606612
0001b0 30 65 c0 3c a7 70 8d bc 65 0c e4 bd ee c3 dc bd
       0.02348575 -0.01726563 -0.111351766 -0.10779558
0001c0 97 dd 8b 3d 4f 25 32 3b 67 fa a8 bc 54 32 ce bd
       0.06829374 0.0027182882 -0.020627214 -0.10068193
0001d0 80 e6 b4 3b 06 ff 17 3d 0e 83 a9 bd 38 bf bb 3c
       0.005520642 0.037108444 -0.0827695 0.022918329
0001e0 c8 34 11 bc 84 91 af 3c 81 0f ba bd b5 b6 5e bd
       -0.008862682 0.021431692 -0.090849884 -0.05437346
0001f0 37 b3 02 bd dc d5 9f 3c ea bf f1 bd a0 dd dd bd
       -0.031909194 0.019511156 -0.11804183 -0.10833287
000200 de ea 96 3d 17 2c a2 3d 7b 98 d2 bc a5 4e 52 3d
       0.07369016 0.07918566 -0.025707474 0.051344533
000210 ad b3 19 bc cb 8e 3e 3d 69 18 a8 3d 11 a5 c6 3d
       -0.009381217 0.046522897 0.08207781 0.09699453
000220 33 f8 01 bd f2 a0 11 3c 0c 45 70 bc aa 08 c7 bd
       -0.03173084 0.00888847 -0.0146649 -0.097184494
000230 1f b6 82 bd 16 47 3e 3d b0 81 de 3d b0 74 c8 3c
       -0.06382393 0.04645451 0.1086458 0.024469703
000240 a0 21 3c 3d e6 06 92 3c 6f 0c df bc 35 f1 b7 bd
       0.045930505 0.017825555 -0.027227608 -0.089815535
000250 fc 94 4f 3d 45 0f 8e bd 78 14 44 3c fa ba 4d 3c
       0.050679192 -0.06936506 0.011967771 0.012556786
000260 05 a3 8e bd fa 23 6a 3d 42 bd 8a bc 48 f1 8e bd
       -0.06964687 0.057163216 -0.016935948 -0.069796145
000270 64 74 e0 bd 46 e1 a8 3c bd 26 fd bd ea d4 8f 3d
       -0.109597 0.020615231 -0.12360904 0.07023032
000280 54 a8 13 3c 54 6f 37 3c d2 94 ca bd 64 1f 84 bd
       0.0090123005 0.011195976 -0.098916665 -0.064513
000290 dd 15 9f bd 8b 8f 04 bd b3 ee 87 3d 84 3e 66 bc
       -0.07767842 -0.032363456 0.06637325 -0.014052991
0002a0 7e 89 4e bc aa 46 00 3e 8d 51 d0 3d ed 59 80 bd
       -0.012606023 0.12526956 0.101718046 -0.06267152
0002b0 b0 a5 88 3c 00 d4 40 3d d3 ad f1 bd 4b 5d ba bd
       0.016680568 0.04707718 -0.118007325 -0.090998255
0002c0 29 6e a7 bd 4a 11 d8 bd e3 ed 13 bd 09 4c bb bd
       -0.08175308 -0.105501726 -0.03611554 -0.09145362
0002d0 8e 8d cd 3d 90 93 db bc 50 82 a4 bd 14 81 a2 3d
       0.10036765 -0.026803762 -0.08032668 0.07934776
0002e0 59 b0 b2 3d bb b9 dc bc f7 77 0e be 95 dd 79 bc
       0.08725042 -0.026944032 -0.1391295 -0.015250583
0002f0 51 64 e4 3c 59 aa f8 bd 80 2c e2 3d 09 21 35 bd
       0.027879866 -0.12141866 0.11043644 -0.044220958

weight f4 [64, 192]
000000 58 09 23 bd eb 8f df 3c 05 3e 88 bb 93 6e f3 3c
       -0.039803833 0.027290305 -0.004157784 0.029715812
000010 72 37 47 3d b6 31 d7 3b 75 c1 82 bd 61 0a f9 3c
       0.04863686 0.0065672053 -0.06384555 0.030400457
000020 90 cc 53 bd ec 73 9c bd ca f4 b2 bd 7d d8 cb bc
       -0.051708758 -0.07639298 -0.08738096 -0.024883503
000030 ad 1a 04 3d 7a c7 99 3c 3c 1d 48 3d 49 39 45 3d
       0.032252003 0.018771876 0.048856005 0.048150335
000040 2c 74 97 3c f4 da a2 bd e6 1f 3d bd b4 18 61 3c
       0.018488012 -0.07951918 -0.046173 0.0137388
000050 a9 86 1c 3c 77 9f a1 bd 49 8c 07 3d ed 3e 76 bd
       0.00955359 -0.07891744 0.03309277 -0.060118604
000060 ba e1 83 bc 27 d3 1c 3d b7 3f 4e 3c c2 c8 a7 bc
       -0.016098846 0.038287308 0.012588433 -0.020481471
000070 b0 af 25 3d 34 a3 ab bd ea 70 af bd 1d 9d 99 bd
       0.04045075 -0.08380738 -0.085664585 -0.0750067
000080 34 ba d2 bc 56 6f 07 bd e6 c5 39 bc fa 98 18 bd
       -0.025723554 -0.033065163 -0.011338687 -0.037255265
000090 d0 b0 29 3c 0a bf a3 bd 08 25 4d bd 23 59 50 bd
       0.010357097 -0.07995422 -0.050084144 -0.050866257
0000a0 d6 61 a8 bd 6a 3c 2e bd bf a6 b5 bd ee d7 ca bb
       -0.08221786 -0.042538084 -0.08869695 -0.0061902916
0000b0 e4 53 20 bd 17 22 aa bd 5e a8 76 bd 2c de ce bb
       -0.039142504 -0.08307283 -0.06021916 -0.006313106
0000c0 18 44 9d 3c fd cc 88 bd 8a 96 a3 bd b7 bc 2d bd
       0.019197509 -0.066797234 -0.079876974 -0.0424163
0000d0 e3 25 2d 3c 2f 5a ff 3c 9b c7 a7 bc cb 69 69 bd
       0.010568115 0.031170933 -0.020480921 -0.056985658
0000e0 3e 72 76 3b e1 d6 86 bd f3 9e 80 bd 07 4a a4 bd
       0.0037604715 -0.06583954 -0.06280317 -0.08021932
0000f0 ac 56 b1 bd 25 b1 a7 bd 3a 8a 0f 3d b7 3f de 3c
       -0.086591095 -0.081880845 0.035043932 0.027129991
000100 73 a3 91 bd 5f 36 38 bd e1 41 8f bd 8d 45 49 3d
       -0.071112536 -0.044973727 -0.06994987 0.049138594
000110 40 b2 ee 3c 1c ca 63 bd 18 1d dc 3c 44 37 3b 3d
       0.02913773 -0.05561267 0.026869342 0.045707002
000120 22 5f 81 bc 6a 59 71 3a 2f b5 8b bb d7 ad 3e bd
       -0.015792433 0.0009206744 -0.004263542 -0.046552505
000130 cd 54 39 bd b8 a8 9a 3c a4 7b 80 bd 65 d4 14 bd
       -0.045246888 0.01887928 -0.062735826 -0.036335368
000140 1d 58 4b 3d 31 9f 47 3d 74 f1 f2 bc 6d 0d ad bd
       0.04964458 0.0487358 -0.02965615 -0.084498264
000150 8a 43 0f 3c 36 3c 7b bd c2 c1 9c 3c 2a ac 5c bd
       0.00874413 -0.06133672 0.01913536 -0.053875126
000160 1e 91 a4 3c 47 58 8c bc 20 cc 9a bd ea 29 86 bd
       0.020088729 -0.017131938 -0.07558465 -0.06550963
000170 a8 09 46 3d 0a 9b 07 3d 2d ad e6 bc 5f a6 5c bc
       0.048349053 0.03310684 -0.028158749 -0.0134674
000180 ea e7 a9 3c 40 2f 8e 3c 0b b2 a3 bd dd 26 5a bd
       0.020740468 0.017356515 -0.079929434 -0.05325972
000190 e6 54 96 bd ce 31 99 3c c2 2d d0 bc 1a 38 ac 3c
       -0.07340412 0.018700507 -0.025412444 0.021022845
0001a0 6c 4a e1 bb 3d f0 e8 3c 08 88 bc 3c 75 03 f9 bc
       -0.006875327 0.028434867 0.023014084 -0.030397156
0001b0 16 83 4f bd 71 2b ae bd e5 6b bf 3c 80 9c 87 bb
       -0.050662123 -0.085043795 0.023366878 -0.0041385293
0001c0 71 0a a4 bd a2 d7 91 bd ae 50 d6 3c 51 75 3a bc
       -0.08009804 -0.07121207 0.026161518 -0.0113805095
0001d0 a2 d0 da bc 39 ad 4f 3d 0a 2b 92 3c 98 23 f6 bb
       -0.026710812 0.050702307 0.017842788 -0.0075115673
0001e0 6e 91 dc bc ea c1 31 bd b0 4e b8 b8 0a e4 36 bd
       -0.026924815 -0.04339782 -8.7884604e-05 -0.04465107
0001f0 be e3 76 bd 81 16 aa bc 42 b7 d8 3a 55 5f 4f bc
       -0.060275786 -0.020762684 0.0016534107 -0.012657006
000200 40 ec 54 3d 36 44 32 3d da d7 f5 3b 4a dd 09 bd
       0.051983118 0.043522082 0.007502538 -0.033658303
000210 28 39 0d 3d f6 93 9b bd 80 e4 5f 3d 8b 7b 2e 3d
       0.034478337 -0.07596581 0.054661274 0.04259829
000220 f6 ac 96 bc f6 49 06 3d d8 32 dd bb 0b 99 2d bd
       -0.018393021 0.03278538 -0.006750446 -0.04238228
000230 98 91 44 bd f5 82 1f 3d 38 4d 76 bd 50 6d 51 3c
       -0.04799041 0.03894325 -0.060132235 0.01278241
000240 b7 79 28 bd 52 e7 b9 3c 70 5b bb 3c d1 d9 26 bd
       -0.0411317 0.02269331 0.02287075 -0.04073507
000250 bd 42 b4 bd 76 47 6b bd 7a 90 99 bd 23 7c dc bc
       -0.08801792 -0.057441197 -0.0749826 -0.026914662
000260 39 29 68 bc 4e f0 06 bd 6c 9a 1d 3d d0 f6 0a 3d
       -0.0141699845 -0.032944016 0.038477346 0.033926785
000270 f3 5b 31 bd f8 28 14 bd 5b 02 f2 3c 55 04 9c bd
       -0.04330058 -0.036171883 0.029542139 -0.07618014
000280 e7 81 df 3c d6 d4 83 bd a5 3a 14 3d 91 ce 3b bd
       0.027283622 -0.064370796 0.03618874 -0.045851294
000290 d0 47 5f 3d 7b b0 a3 bd c9 55 81 bd 17 24 a4 bd
       0.054511845 -0.07992645 -0.0631519 -0.08014696
0002a0 32 47 d8 bc 0e ed 2c bd cc 04 0b 3d 55 0b 95 bc
       -0.026401136 -0.04221826 0.03394012 -0.01819388
0002b0 9a 0a 99 bd 82 8c 86 bd f7 32 2f 3d 6a e7 8e 3c
       -0.07472725 -0.065697685 0.042773213 0.017444331
0002c0 7d c5 d8 3c 70 8e 75 bc f0 d4 39 bd 24 3d 84 bd
       0.026461357 -0.014987573 -0.04536909 -0.06456974
0002d0 e9 86 38 3d 6f 63 1c 3c 33 cd 9b bd 84 7d 89 bd
       0.045050535 0.009545191 -0.07607498 -0.06713393
0002e0 3c 8b 1a 3d 0f 16 de 3c 4b ff 8f 3b e0 2b 21 3d
       0.03773044 0.027110128 0.004394447 0.039348483
0002f0 f1 26 1d bc d6 a4 71 3c 98 da 3c bd ed 4b 13 bd
       -0.009591804 0.014748773 -0.046106905 -0.03596108
000300 d1 79 7d 3d ae 1e 2d bd 4d 5a eb 3c 3a 0d 1c 3d
       0.06188375 -0.042265587 0.028729582 0.03809855
000310 a4 3e ea 3c 5a 27 42 3d 9c 84 77 3c 9d 66 62 bd
       0.028594323 0.04740081 0.0151073 -0.05527364
000320 54 fc 82 3c dc 0e e5 3c c2 a4 09 3c c0 71 2d bc
       0.01598946 0.027961187 0.008401098 -0.010586202
000330 86 8b 44 3d a0 36 44 3c 86 db 31 3d a9 f4 86 bc
       0.047984622 0.011975914 0.043422244 -0.016474085
000340 2a 33 4f 3d cf 7a 60 3d 53 fc 89 bb 41 3b 15 3d
       0.050585903 0.05480462 -0.0042109876 0.036433462
000350 57 54 48 bd 6f 90 a3 bd 71 9f 7d 3c 22 d2 71 bd
       -0.048908558 -0.07986533 0.015479908 -0.05903829
000360 fe a7 a0 bd 71 65 4f bd 94 a3 b0 bd c9 b8 ae bd
       -0.07844542 -0.05063385 -0.0862495 -0.08531339
000370 4f ed 35 3d 28 32 c5 3a a6 7c 60 bd 10 0e 69 bc
       0.04441577 0.0015044855 -0.054806374 -0.014224544
000380 b8 c1 8a bc 20 45 0e 3d c7 7f 9f bd b0 8b a5 bd
       -0.016938075 0.03473389 -0.077880435 -0.08083284
000390 0d a2 9c bc 21 74 fa bc cb ad c8 3c 8c bb 1e 3d
       -0.01912024 -0.030572953 0.024496933 0.038753077
0003a0 a7 8b 89 bd f7 d3 9e bd 67 7d 04 3d b8 25 9a bd
       -0.0671609 -0.07755273 0.032346155 -0.075267255
0003b0 03 e8 18 bd 34 73 69 bd 29 56 b2 bc 17 d9 5d bb
       -0.03733064 -0.056994632 -0.0217696 -0.003385132
0003c0 44 5b 34 bc c4 cd 63 3d a9 e0 8c bd bd fe 2c 3d
       -0.011008088 0.055616155 -0.06878788 0.042235125
0003d0 10 0f 92 bd e0 c3 2f bd d7 7f 6b 3d eb 2a 72 bd
       -0.07131779 -0.04291141 0.057494964 -0.05912296
0003e0 97 da 1e bd c3 6f f4 3c 7d 62 1f bd b9 fe 8e bc
       -0.038782682 0.029838448 -0.038912285 -0.017455446
0003f0 ae 53 ad bd fd f2 54 3d 0f 05 66 bd 6a 8c 60 bd
       -0.08463226 0.051989544 -0.056157168 -0.05482141

bias f4 [64]
000000 c3 09 11 bc 30 e2 07 bb ca 1b b6 bc 1b e9 0c 3b
       -0.008852425 -0.0020734183 -0.022230048 0.0021501246
000010 6a 70 66 3d 2f dd 33 3d bc 70 45 3d 53 40 a3 bd
       0.05625955 0.04391211 0.048203215 -0.07971253
000020 fe c0 36 3d 13 d3 c8 bc a6 0e a8 3c 7d 3a 15 bd
       0.044617645 -0.02451471 0.020514797 -0.036432732
000030 f5 fc d7 bc b0 c5 85 bd db ad 9b bc 8f c4 21 3d
       -0.026365736 -0.065318465 -0.0190038 0.039494094
000040 c1 61 84 bd 84 b6 c2 3c 74 02 94 bc 8d 94 62 bd
       -0.064639576 0.02376867 -0.018067576 -0.05531745
000050 46 dd 98 bd 35 15 88 bd 0d 18 32 3d c3 9c ac 3c
       -0.074640796 -0.0664467 0.043479968 0.021070844
000060 5b ab 47 3d c5 b3 5e bd 67 09 1b 3d 23 31 7d bd
       0.0487474 -0.05437066 0.037850764 -0.06181444
000070 d3 e9 e5 3c 69 60 b5 3c 0c 93 02 bd 85 63 72 bd
       0.028065598 0.022140699 -0.031878516 -0.05917694
000080 be ff 94 3c bf 55 c3 bb 3b af 5a bd 33 49 86 bd
       0.018188354 -0.0059611495 -0.05338977 -0.065569304
000090 75 32 7b bd 87 6a 36 bb 8e 4d b3 bc d8 00 4b bb
       -0.061327416 -0.0027834491 -0.021887567 -0.0030975845
0000a0 ce 39 31 bd 52 48 88 bd b0 9e 69 3b 5d 52 87 bd
       -0.043268017 -0.06654419 0.0035647564 -0.066075064
0000b0 df 41 87 bc ac ab c0 bc b8 7e f0 3b 96 3c 02 bd
       -0.016510902 -0.02351936 0.007339325 -0.03179606
0000c0 3b b7 87 3c 36 8e 57 bc 8c 85 49 3d c7 64 80 3d
       0.016566863 -0.013156464 0.049199626 0.06269222
0000d0 77 36 4b bd c2 fd 48 bd e9 0a 99 3d 0a f5 13 3d
       -0.04961249 -0.049070127 0.07472784 0.03612236
0000e0 fa f2 e9 bc a6 36 61 bd ba 76 56 bd 94 0d ff 3b
       -0.028558243 -0.054983757 -0.05235932 0.007783601
0000f0 4c 33 0c bb 45 6e 3f 3d 41 17 0c 3c 34 4b 50 bd
       -0.002139288 0.04673602 0.008550466 -0.05085297
