models/MATBENCH/MEGNET/src/sae/model.blocks.0.state_func.pkl (torch, 28896 bytes, 4 tensors)

weight f4 [96, 32]
0.030820038 -0.08832322 0.04606697 0.1699505 -0.0034459638 -0.0849068 -0.039622802 -0.13987768
0.14026791 0.08585058 0.0019465407 0.045930397 -0.09829812 0.14918648 0.08582822 -0.0430489
0.16846181 0.14299406 0.15021434 -0.063664846 0.16068853 -0.024541138 0.07709228 0.13226232
-0.12709998 0.10096382 0.09632373 -0.0865948 0.036585215 0.19087324 0.061355773 -0.038663402
-0.069541655 -0.1394674 0.028416451 0.12815031 -0.09756549 0.12157196 0.05816578 -0.12357294
-0.10318197 -0.047155596 0.09372108 -0.09402385 -0.09223501 -0.0054575256 0.12388492 -0.12070282
-0.095122136 -0.16036606 0.0666265 -0.025271881 -0.07055268 -0.07794323 -0.009176211 0.12345093
-0.088697515 -0.11528108 -0.17491144 -0.045343786 -0.11685181 0.03974028 0.11528413 0.053835545
-0.029505042 0.0036228595 0.1450582 0.02600853 -0.0629424 -0.18246128 -0.15520027 -0.14276195
-0.07505181 0.13033114 0.10131341 0.16480596 0.07809869 -0.017624937 0.032062937 -0.1305874
0.16994168 -0.16996568 -0.13438065 -0.016260762 -0.0866204 -0.034627877 -0.096795596 -0.08368142
0.043316294 -0.12769186 -0.09503625 0.10901349 0.041682992 0.04406445 -0.012644592 -0.16024588
-0.12920874 -0.136057 0.09355837 -0.11043506 -0.07491092 0.040878754 0.11549076 -0.03140861
-0.15497424 -0.033930656 -0.032517444 0.051917966 -0.15332134 0.116441436 0.06393605 0.15572365
0.079110965 0.14413409 0.10124607 0.07846214 0.17864811 -0.042495415 -0.02985162 0.15653601
-0.025059288 0.15639548 0.0039703646 0.10463932 -0.15704753 0.073832534 0.017412152 -0.056254327
-0.11037787 0.15612441 -0.14128403 -0.10439612 0.03814774 -0.06984426 0.0319564 -0.16679643
0.008150636 -0.03858956 0.004094533 0.19244142 -0.016844364 -0.03313421 0.041107126 0.13294522
-0.093655765 0.011205099 0.09237982 -0.16563664 0.03416382 -0.18779995 0.0014039364 0.11134437
0.15053536 -0.18684043 -0.16969386 -0.08498077 0.14746019 0.16057196 0.13530202 0.039241895
-0.13893989 0.0864753 0.03973141 0.028944936 0.06285945 0.14133468 0.07023119 0.15457402
0.15865983 -0.07281763 -0.17788522 -0.114741944 -0.14021143 -0.08788019 -0.0060090497 0.022757461
-0.11921738 0.07148383 -0.11172299 0.034678657 -0.038085237 -0.17638595 -0.014013778 0.042105816
-0.06893844 0.115172684 -0.080468036 -0.12349683 0.13433906 0.15274915 0.12829423 0.14745818
0.08855636 -0.1314959 0.056819554 0.15782666 0.116701484 -0.15487672 0.0074553983 -0.005127415
-0.08764371 0.049460284 0.056897935 0.1562141 0.023421282 -0.029180374 -0.0077072745 0.16838133
0.071828574 0.159877 -0.1627647 0.019480057 -0.00050685543 -0.0846271 -0.12490426 -0.06751198
0.1382422 -0.13695459 -0.0973663 -0.048249077 0.18278532 0.13982658 0.03915827 0.1407203
0.07732647 0.053134248 0.087342426 0.18179512 -0.10394096 0.04941522 0.14873548 -0.18137324
0.08214813 -0.047004376 0.0808104 0.15213849 -0.009116532 -0.123964705 -0.08521315 -0.14758155
-0.15231524 -0.04340366 0.13828932 0.03849362 0.07571608 -0.052306075 -0.006516249 -0.13932817
-0.163622 -0.1555024 -0.17607321 0.055063926 0.0798513 -0.10932331 -0.056240138 -0.09675208
00000000: 4e7a fc3c cee2 b4bd b8b0 3c3d 8107 2e3e
00000010: aed5 61bb 9ee3 adbd 854b 22bd 183c 0fbe
00000020: 64a2 0f3e 6ed2 af3d 1123 ff3a 8321 3c3d
00000030: 8650 c9bd 57c4 183e b5c6 af3d 0b54 30bd
00000040: 4181 2c3e 096d 123e cad1 193e b762 82bd
00000050: 898b 243e 7f0a c9bc 8fe2 9d3d c66f 073e
00000060: 7f26 02be 1fc6 ce3d 6045 c53d 9d58 b1bd
00000070: 61da 153d 4674 433e 3150 7b3d 845d 1ebd
00000080: db6b 8ebd 8bd0 0ebe 9ec9 e83c d639 033e
00000090: 6ad0 c7bd b8fa f83d 3e3f 6e3d cf13 fdbd
000000a0: 1251 d3bd 3a26 41bd d6f0 bf3d 948f c0bd
000000b0: b5e5 bcbd 0bd5 b2bb 60b7 fd3d 0a33 f7bd
000000c0: 65cf c2bd 0037 24be 7973 883d fa06 cfbc
000000d0: ec7d 90bd b3a0 9fbd d257 16bc d7d3 fc3d
000000e0: 0ba7 b5bd 7d18 ecbd fc1b 33be 68ba 39bd
000000f0: 0050 efbd b4c6 223d 161a ec3d a982 5c3d
00000100: 8fb4 f1bc 7f6d 6d3b 238a 143e d70f d53c
00000110: f2e7 80bd 21d7 3abe d2ec 1ebe 3030 12be
00000120: c3b4 99bd 8775 053e 687d cf3d e5c2 283e
00000130: 35f2 9f3d 2c62 90bc 6d54 033d b4b8 05be
00000140: 3105 2e3e 7c0b 2ebe 159b 09be 4a35 85bc
00000150: 0966 b1bd f6d5 0dbd c53c c6bd 2a61 abbd
00000160: 6d6c 313d a8c1 02be 5ea2 c2bd 7742 df3d
00000170: c9bb 2a3d ed7c 343d 432b 4fbc 7f17 24be
00000180: 4c4f 04be 8752 0bbe 889b bf3d c72b e2bd
00000190: e56a 99bd 7b70 273d 6b86 ec3d 51a6 00bd
000001a0: 91b1 1ebe dffa 0abd 0331 05bd efa7 543d
000001b0: 4500 1dbe d978 ee3d e7f0 823d 0576 1f3e
000001c0: ee04 a23d e397 133e 195a cf3d c2b0 a03d
000001d0: 88ef 363e ac0f 2ebd 628b f4bc fa4a 203e
000001e0: 2349 cdbc 2326 203e d519 823b 244d d63d
000001f0: 11d1 20be 8335 973d eea3 8e3c f06a 66bd
00000200: cb0d e2bd 14df 1f3e c3ac 10be a2cd d5bd
00000210: ce40 1c3d 820a 8fbd b7e4 023d afcc 2abe
00000220: 3f8a 053c 1610 1ebd 6f2b 863b 5d0f 453e
00000230: 31fd 89bc bdb7 07bd f25f 283d cb22 083e
00000240: 98ce bfbd 9795 373c a231 bd3d a79c 29be
00000250: 5def 0b3d a14e 40be 4a04 b83a 8408 e43d
00000260: f125 1a3e 1953 3fbe 3ac4 2dbe 660a aebd
00000270: ceff 163e fa6c 243e 9d8c 0a3e 1cbc 203d
00000280: 4246 0ebe f619 b13d 67bd 223d ee1d ed3c
00000290: 75bc 803d 0aba 103e 5fd5 8f3d a748 1e3e
000002a0: b977 223e 6921 95bd 8b27 36be d3fd eabd
000002b0: 9693 0fbe 87fa b3bd 90e7 c4bb db6d ba3c
000002c0: 3e28 f4bd 1d66 923d 06cf e4bd 350b 0e3d
000002d0: 44ff 1bbd 859e 34be 0c9a 65bc 2677 2c3d
000002e0: 992f 8dbd a8df eb3d 6dcc a4bd e8eb fcbd
000002f0: 2e90 093e 466a 1c3e 905f 033e 47ff 163e
00000300: 095d b53d dca6 06be 9fbb 683d 509d 213e
00000310: 3001 ef3d 0198 1ebe 6a4c f43b e003 a8bb
00000320: 8c7e b3bd de96 4a3d cf0d 693d 97f6 1f3e
00000330: fddd bf3c ae0b efbc 4e8d fcbb 286c 2c3e
00000340: dc1a 933d ccb6 233e caab 26be a494 9f3c
00000350: 7ede 04ba f950 adbd cecd ffbd b943 8abd
00000360: 5d8f 0d3e d33d 0cbe fc67 c7bd d3a0 45bd
00000370: 132c 3b3e b32e 0f3e 6c64 203d fb18 103e
00000380: 575d 9e3d 4ca3 593d 96e0 b23d 8028 3a3e
00000390: ffde d4bd 9d67 4a3d 1d4e 183e e8b9 39be
000003a0: 473d a83d a987 40bd ec7f a53d 31ca 1b3e
000003b0: 825d 15bc 35e1 fdbd 3b84 aebd 9e1f 17be
000003c0: 87f8 1bbe 09c8 31bd b79b 0d3e 7cab 1d3d
000003d0: 0811 9b3d e53e 56bd 4286 d5bb 0bac 0ebe
000003e0: 878c 27be 053c 1fbe 894c 34be b68a 613d
000003f0: 1489 a33d e6e4 dfbd 0f5c 66bd f425 c6bd

bias f4 [96]
0.04297058 -0.18815212 -0.019504445 -0.18016815 -0.1854086 -0.1620322 0.04419582 -0.007935078
0.058740493 0.09031471 -0.058436465 -0.086976364 0.08359532 -0.09980705 -0.11198377 -0.1552477
0.15968579 0.008941718 -0.106342256 0.06559565 -0.17996638 -0.01890064 -0.084844865 -0.17544334
-0.11683968 0.14827162 0.119989924 -0.107234046 0.14044566 0.14027327 -0.17931445 -0.15582365
-0.038020536 0.1448102 0.015177259 0.034785002 -0.07182753 -0.111583315 -0.0027005298 0.036381565
-0.102656856 0.13525201 -0.121246904 -0.064089164 -0.077322215 -0.011979816 -0.0019808896 -0.030609183
-0.13430561 -0.08065557 -0.11840766 -0.08806543 -0.1242116 -0.13896847 -0.120623596 -0.11404681
-0.16254207 0.13863821 0.013916159 0.106387034 -0.15852016 -0.14316292 0.07154843 0.095663875
0.03806726 0.05851556 -0.008967638 -0.0787349 0.056745432 0.058809396 0.01645994 0.021589993
-0.03274948 0.04603424 0.09507942 0.11091711 -0.077275604 0.053046208 0.034952234 -0.19164288
-0.063244514 -0.033727873 0.12351339 -0.0014243526 -0.015551905 0.06049342 0.04119356 -0.16786261
-0.09558599 -0.1815488 0.100260995 0.069066405 -0.14918615 -0.012495879 -0.002072114 0.14536351
00000000: eb01 303d f3aa 40be c9c7 9fbc 007e 38be
00000010: c1db 3dbe c5eb 25be ad06 353d 2102 02bc
00000020: df99 703d ebf6 b83d 135b 6fbd aa20 b2bd
00000030: 0634 ab3d a367 ccbd bf57 e5bd 41f9 1ebe
00000040: ac84 233e 4980 123c f8c9 d9bd 0357 863d
00000050: 1b49 38be 84d5 9abc 25c3 adbd 6ba7 33be
00000060: a449 efbd 84d4 173e 47bd f53d 869d dbbd
00000070: fdd0 0f3e cca3 0f3e 359e 37be 3c90 1fbe
00000080: 6cbb 1bbd 2049 143e 0aaa 783c b87a 0e3d
00000090: 501a 93bd cb85 e4bd 5ffb 30bb d604 153d
000000a0: c23d d2bd 817f 0a3e 4c50 f8bd 2e41 83bd
000000b0: 1c5b 9ebd fd46 44bc d0d1 01bb 1cc0 fabc
000000c0: 6987 09be bf2e a5bd b77f f2bd a65b b4bd
000000d0: a762 febd c04d 0ebe 8109 f7bd 6091 e9bd
000000e0: 6e71 26be 2df7 0d3e 9a00 643c 72e1 d93d
000000f0: 1c53 22be 4d99 12be fc87 923d 6ceb c33d
00000100: 6aec 1b3d 03ae 6f3d 00ed 12bc c33f a1bd
00000110: e66d 683d 1fe2 703d ffd6 863c 7fdd b03c
00000120: 5224 06bd 668e 3c3d 00b9 c23d 8328 e33d
00000130: ac42 9ebd fb46 593d 132a 0f3d 083e 44be
00000140: 5786 81bd 3d26 0abd 97f4 fc3d 58b1 baba
00000150: 6bcd 7ebc f3c7 773d 94ba 283d 2de4 2bbe
00000160: 96c2 c3bd eee7 39be a355 cd3d b072 8d3d
00000170: 41c4 18be 84bb 4cbc 4ecc 07bb 2cda 143e

weight f4 [32, 96]
-0.08353542 0.084250964 0.047858316 -0.03638932 0.05164032 -0.068648905 0.059467364 -0.05041092
-0.009218188 -0.01647326 -0.084668815 0.07104909 -0.059653964 -0.028602244 0.10119304 0.101398304
-0.027300267 0.07830191 -0.08666285 0.0720387 0.044290412 0.06071625 0.054741245 -0.08459273
0.037860304 -0.011316265 -0.031083073 0.06803347 -0.06579555 0.015048474 -0.009487041 -0.002310864
-0.003329997 0.024779929 0.05616828 0.087603785 -0.083005555 0.051391944 0.0742843 -0.07530937
-0.052292854 0.07546871 -0.033025816 0.03377232 -0.010901943 -0.087734506 -0.041890975 -0.05515669
-0.022925857 -0.062051717 0.023936305 0.047575094 -0.08407394 -0.056805745 -0.08249893 0.10644354
-0.06736308 -0.060503732 -0.0020906883 -0.015092897 -0.050504413 0.03609789 -0.045383297 0.004608997
0.03632312 0.08082306 0.06058515 -0.06068702 -0.026061501 0.09421258 -0.07117929 0.008335452
-0.055940416 0.06540377 -0.06815728 0.059603676 -0.044559333 -0.067373626 0.081132725 -0.0424925
-0.0634206 -0.0286765 0.077973574 -0.07568757 0.00607437 0.041392766 -0.04207364 0.05718124
0.0029266814 0.09520054 -0.054479912 0.03249168 0.051785134 0.0071422383 -0.00299341 -0.06548883
0.09485571 0.015329011 -0.03988271 -0.03245504 -0.04283285 -0.022735551 0.00354958 0.00054473756
-0.00032366128 -0.08391129 0.03631669 0.017435243 0.07283358 -0.076364025 0.106341004 0.059157614
-0.07050869 -0.010921291 -0.049873654 -0.034682065 0.05084863 0.0774091 -0.082634605 -0.043367676
0.11159413 -0.012756773 0.050517853 0.093661666 -0.04553825 0.037217982 0.00048976345 -0.029858105
-0.05073806 0.0084301615 0.01401537 -0.026741846 0.040144704 -0.021151701 -0.03944127 -0.025505593
0.075838104 -0.089891054 0.05866199 -0.054234467 0.076475926 -0.06849617 -0.006482974 -0.08663315
0.04133978 -0.089020796 0.023631591 0.07083352 -0.004590055 0.079856694 -0.018444695 -0.06184388
-0.051149685 0.083271995 0.041095935 0.10933248 -0.071272954 0.07164995 -0.037473504 0.0609153
-0.08479973 0.037244167 -0.05738507 0.014046677 0.06080277 0.06500109 0.0357355 -0.041810293
-0.08650324 -0.062240586 0.008737224 -0.09085945 0.0017494584 -0.0505022 0.10214205 0.08446611
0.11154544 -0.009319523 0.0012856288 -0.06928197 0.010693646 -0.07365249 -0.035798416 -0.08625053
0.07211605 0.07974226 0.05192255 0.0684942 0.1095924 0.05595682 0.023498958 -0.08843278
-0.046783816 -0.028509945 0.0063151405 0.07368378 -0.05785682 0.028654434 -0.030681163 -0.08890327
-0.11094162 -0.017849255 0.064908355 -0.02498953 0.09112735 -0.08783831 0.03611453 -0.02691823
0.082036614 -0.0065866653 0.043777227 0.06288853 0.077288225 -0.015916858 0.05530849 0.015497502
0.08684441 0.03582132 0.043303218 0.056243487 -0.048300825 -0.00032001841 -0.036671314 -0.051807027
-0.05653079 0.039115485 -0.0554283 -0.047434524 0.050496947 -0.086370744 -0.075470194 0.04131375
0.059173357 -0.040967837 -0.046032693 0.08748249 -0.099718116 0.0037891055 -0.1055208 0.08109387
0.03745408 -0.049283423 -0.037579786 -0.02803237 0.06299855 -0.05850077 -0.09999379 -0.07323526
0.09099671 0.021269169 0.08821544 0.028995255 -0.007374929 0.037626706 -0.064287566 -0.022795936
00000000: 9e14 abbd c58b ac3d 1507 443d f80c 15bd
00000010: cd84 533d cc97 8cbd 0d94 733d ae7b 4ebd
00000020: e207 17bc eef2 86bc d866 adbd 2f82 913d
00000030: b757 74bd 414f eabc 4c3e cf3d eaa9 cf3d
00000040: cfa4 dfbc c05c a03d 4b7c b1bd 0789 933d
00000050: dd69 353d 9ab1 783d 5b38 603d f43e adbd
00000060: 6813 1b3d db67 39bc eea1 febc 2255 8b3d
00000070: d1bf 86bd e08d 763c 896f 1bbc dd71 17bb
00000080: 143c 5abb 47ff ca3c b610 663d 9d69 b33d
00000090: d1fe a9bd 5c80 523d 5e22 983d cd3b 9abd
000000a0: 0831 56bd 578f 9a3d 1446 07bd d854 0a3d
000000b0: 109e 32bc 26ae b3bd df95 2bbd fbeb 61bd
000000c0: 02cf bbbc f129 7ebd 1216 c43c 1ade 423d
000000d0: f52e acbd 24ad 68bd 33f5 a8bd 12ff d93d
000000e0: a8f5 89bd c3d2 77bd ee03 09bb 3348 77bc
000000f0: b7dd 4ebd 62db 133d d6e3 39bd 1207 973b
00000100: 8dc7 143d 8f86 a53d 2228 783d f492 78bd
00000110: ee7e d5bc 86f2 c03d 73c6 91bd 6b91 083c
00000120: c721 65bd 69f2 853d 0b96 8bbd fc22 743d
00000130: d983 36bd 2ffb 89bd ea28 a63d 9e0c 2ebd
00000140: a9e2 81bd fbea eabc 9cb0 9f3d 1602 9bbd
00000150: 820b c73b 768b 293d 6955 2cbd e036 6a3d
00000160: 91cd 3f3b 80f8 c23d 5426 5fbd ff15 053d
00000170: a61c 543d 7009 ea3b 162d 44bb 021f 86bd
00000180: b643 c23d 8826 7b3c 0d5c 23bd 93ef 04bd
00000190: 8071 2fbd e83f babc 12a0 683b b8cc 0e3a
000001a0: 15b1 a9b9 afd9 abbd cfc0 143d 5bd4 8e3c
000001b0: c629 953d be64 9cbd 50c9 d93d 414f 723d
000001c0: dc66 90bd 37ef 32bc 5148 4cbd c80e 0ebd
000001d0: a746 503d aa88 9e3d 553c a9bd 4ea2 31bd
000001e0: 778b e43d c901 51bc cfeb 4e3d b0d1 bf3d
000001f0: 5186 3abd e271 183d 7863 003a fc98 f4bc
00000200: b6d2 4fbd a91e 0a3c b9a0 653c b711 dbbc
00000210: c66e 243d 5546 adbc 2b8d 21bd 1bf1 d0bc
00000220: 0251 9b3d cd18 b8bd 8e47 703d f624 5ebd
00000230: 699f 9c3d b847 8cbd 216f d4bb b96c b1bd
00000240: e753 293d 8950 b6bd 0a97 c13c 2a11 913d
00000250: 2c68 96bb e88b a33d 5419 97bc 0250 7dbd
00000260: 5582 51bd 828a aa3d 3654 283d b5e9 df3d
00000270: 8ef7 91bd 36bd 923d d17d 19bd 5282 793d
00000280: 7bab adbd 578d 183d 9b0c 6bbd 0924 663c
00000290: 530c 793d 4b1f 853d 635f 123d 4541 2bbd
000002a0: 9c28 b1bd fcef 7ebd 9326 0f3c 8514 babd
000002b0: 154e e53a 65db 4ebd da2f d13d 91fc ac3d
000002c0: f071 e43d eab0 18bc 8b82 a83a b5e3 8dbd
000002d0: 6734 2f3c 1ed7 96bd 5ca1 12bd 1ea4 b0bd
000002e0: 94b1 933d e94f a33d bdac 543d b046 8c3d
000002f0: fb71 e03d fa32 653d e380 c03c 3f1c b5bd
00000300: 63a0 3fbd b08d e9bc 3def ce3b 86e7 963d
00000310: 46fb 6cbd b4bc ea3c 1057 fbbc eb12 b6bd
00000320: 5c35 e3bd 9a38 92bc acee 843d d8b6 ccbc
00000330: faa0 ba3d 92e4 b3bd d4ec 133d 9f83 dcbc
00000340: d002 a83d f4d4 d7bb c04f 333d b4cb 803d
00000350: 4a49 9e3d 1264 82bc 288b 623d 3ce9 7d3c
00000360: 7bdb b13d 60b9 123d b75e 313d 925f 663d
00000370: 16d7 45bd 25c8 a7b9 a934 16bd 9b33 54bd
00000380: d48c 67bd 8f37 203d c908 63bd b44a 42bd
00000390: e3d5 4e3d 25e3 b0bd 1e90 9abd 9b38 293d
000003a0: c35f 723d e4cd 27bd c78c 3cbd 052a b33d
000003b0: 0339 ccbd a452 783b 4a1b d8bd 8b14 a63d
000003c0: 7369 193d 6add 49bd 43ed 19bd 24a4 e5bc
000003d0: 6205 813d 819e 6fbd 8bc9 ccbd 5efc 95bd
000003e0: 7c5c ba3d ae3c ae3c 4caa b43d 7587 ed3c
000003f0: 63a9 f1bb 761e 1a3d 33a9 83bd 8bbe babc

bias f4 [32]
-8.154119e-05 -0.035178497 0.008747069 0.058049805 0.03750432 0.06770032 -0.04545733 0.069253534
0.029980097 0.056162566 -0.007915946 -0.070972964 -0.07050454 0.011795387 0.027597789 0.087046616
-0.012087083 -0.046097387 -0.07314163 -0.045292974 0.07396038 -0.06324481 0.09849881 -0.0067194044
0.08350146 -0.042678535 0.093882345 -0.011939106 0.094998956 -0.028973848 0.044225357 0.028555825
00000000: 1801 abb8 5417 10bd de4f 0f3c a2c5 6d3d
00000010: 219e 193d 77a6 8a3d 7731 3abd ccd4 8d3d
00000020: d298 f53c b80a 663d e2b1 01bc 465a 91bd
00000030: af64 90bd 7041 413c c214 e23c 7f45 b23d
00000040: e708 46bc 9dd0 3cbd 47cb 95bd 2085 39bd
00000050: 8a78 973d 7f86 81bd beb9 c93d 732e dcbb
00000060: d002 ab3d b0cf 2ebd 6345 c03d 3d9c 43bc
00000070: d08e c23d 905a edbc a625 353d e8ed e93c
