models/MATBENCH/MEGNET/src/sae/model.blocks.0.conv.node_func.layers.4.pkl (torch, 29000 bytes, 4 tensors)

weight f4 [96, 32]
0	0x3dc91368	0.098181546
1	0x3e21146d	0.15730448
2	0xbc748508	-0.014924295
3	0xbdf12fa1	-0.117766626
4	0x3cc17ab5	0.023618082
5	0x3d3b36ca	0.045706548
6	0x3bec96d2	0.0072201276
7	0xbd5b72dc	-0.053576335
8	0xbaec774e	-0.0018040927
9	0xbe3efe0f	-0.18651603
10	0x3de73619	0.11289615
11	0x3d13c275	0.03607412
12	0x3e321f7c	0.17394823
13	0x3d0b0b38	0.033946246
14	0xbd881eca	-0.066464975
15	0xbdadee70	-0.08492744
16	0xbd94c9b8	-0.07265037
17	0x3becea88	0.0072301067
18	0x3d11d4aa	0.035603203
19	0xbe0f684b	-0.14004628
20	0xbb701a6c	-0.0036636842
21	0xbe31e24b	-0.1737148
22	0xbdca06df	-0.09864592
23	0x3e2b66c1	0.16738416
24	0xbd00c1eb	-0.031434935
25	0x3db9098b	0.09035023
26	0x3e4092df	0.18806027
27	0xbe135920	-0.14389467
28	0x3d0766dc	0.03305708
29	0xbe1f8aac	-0.15580243
30	0xbd42b66a	-0.047537245
31	0x3df141eb	0.11780151
32	0x3da5f6bf	0.08103704
33	0xbc9cba60	-0.01913184
34	0xbcdd15c2	-0.026987914
35	0xbe1e0664	-0.15432125
36	0xbe24fb78	-0.16111553
37	0x3d4da9eb	0.050210875
38	0xbd469e0d	-0.048490573
39	0x3dc95a2d	0.09831653
40	0xbcffa54d	-0.031206751
41	0x3dce26a6	0.10065965
42	0x3d67b120	0.056565404
43	0xbe245d62	-0.16051248
44	0xbe1aed56	-0.15129599
45	0xbe121bd3	-0.14268427
46	0x3e114be8	0.14189112
47	0x3bd3c0a7	0.006462175
48	0x3c06fcea	0.00823901
49	0xbcc95fa5	-0.02458174
50	0x3d049974	0.032372907
51	0xbe0a8b77	-0.13529764
52	0x3e2f3920	0.17111635
53	0x3c3af0b0	0.011409923
54	0xbc842abd	-0.01613366
55	0xbe088b8c	-0.13334483
56	0x3d906086	0.070496604
57	0x3dcfb0b9	0.10141129
58	0x3b824e13	0.0039765923
59	0x3d553047	0.052047994
60	0x3df35431	0.118812926
61	0xbc889cb2	-0.01667628
62	0x3c076001	0.008262635
63	0xbd55c882	-0.052193172
64	0xbe14e3a5	-0.14539964
65	0xbcc3c18f	-0.023896007
66	0xbd0ec87d	-0.03485917
67	0x3da70e72	0.08157052
68	0xbcb567a2	-0.022144143
69	0x3dc277e7	0.09495526
70	0x3d692fe4	0.056930438
71	0xbc929783	-0.017894512
72	0x3db4f688	0.088360846
73	0xbd1dfca8	-0.03857103
74	0xbba44b6e	-0.0050138747
75	0x3d266350	0.040622056
76	0xbd188c24	-0.037243024
77	0x3e267d2f	0.16258691
78	0xbc5ce53e	-0.01348239
79	0xbdc9ab6f	-0.098471515
80	0x3d1a3b27	0.03765407
81	0xbdba3ddf	-0.09093832
82	0x3e3c85e5	0.18410452
83	0xbc37c261	-0.011215777
84	0xbe1c1647	-0.15242873
85	0x3cf12c29	0.029440003
86	0xbd2612bd	-0.040545214
87	0x3ca4a611	0.020098718
88	0xbd842fe4	-0.06454447
89	0xbd884fea	-0.066558674
90	0xbd83a39f	-0.064276926
91	0x3db8ca3b	0.090229474
92	0xbe3c1c3d	-0.18370147
93	0xbe178e2e	-0.14800331
94	0x3df8ae08	0.12142569
95	0xbd7186bc	-0.058966383
96	0x3e299f79	0.1656474
97	0xbe00c117	-0.12573658
98	0x3c074458	0.0082560405
99	0xbd5d6197	-0.054048147
100	0xbc679530	-0.01413469
101	0x3dc937a2	0.09825064
102	0xbe023930	-0.12717128
103	0xbc490689	-0.0122696245
104	0xbd5bd58a	-0.053670444
105	0xbdd40062	-0.103516355
106	0xbdbcfe69	-0.092282124
107	0xbe098ef3	-0.13433437
108	0xbe23dd8a	-0.16002479
109	0x3df03371	0.11728562
110	0x3dc309bc	0.09523341
111	0xbd87e4fa	-0.06635471
112	0x3d982f6c	0.0743092
113	0x3ded3fb3	0.11584415
114	0xbcc756bc	-0.02433335
115	0x3b488a02	0.0030599837
116	0x3ddea395	0.108710445
117	0x3c3da891	0.011575834
118	0xbe131a82	-0.1436558
119	0x3dac0bd0	0.084006906
120	0xbe07fa94	-0.13279182
121	0x3d6efe26	0.058347844
122	0x3e0bb617	0.1364368
123	0x3d213357	0.039355602
124	0x3d9716c6	0.073773906
125	0x3db731ad	0.08945022
126	0xbd4976ac	-0.04918544
127	0x3b0b32aa	0.0021239915
128	0x3d91dbe1	0.07122017
129	0xbe2e6721	-0.17031528
130	0x3deb91e6	0.11502437
131	0x3deb98d0	0.11503756
132	0x3de8505c	0.11343452
133	0xbd4c3da2	-0.049863465
134	0xbc95283f	-0.018207667
135	0x3da09b1d	0.078420855
136	0x3e149503	0.14509968
137	0x3cbad18c	0.022804998
138	0xbd64996c	-0.055810377
139	0x3d8e4246	0.069462344
140	0x3e34ec8d	0.17668362
141	0x3e3ae587	0.1825162
142	0x3ba296ae	0.00496181
143	0x3dfa57ca	0.12223776
144	0x3dd535d3	0.10410657
145	0x3bafec00	0.0053687096
146	0x3d176c0e	0.036968283
147	0x3c3c3788	0.011487849
148	0xbd932dd7	-0.07186478
149	0xbd0882b7	-0.033327784
150	0x3e225993	0.15854482
151	0x3d2d9e96	0.042387567
152	0x3da5a387	0.08087831
153	0xbce1486f	-0.02750036
154	0x3e09ac88	0.13444722
155	0x3c91e9e8	0.01781173
156	0xbe1cda65	-0.15317686
157	0x3ddfba42	0.10924198
158	0xbdaff4b8	-0.08591598
159	0x3de309be	0.110858425
160	0x3e1fa1da	0.15589085
161	0xbdb6e79f	-0.08930897
162	0x3e1803c5	0.14845188
163	0xbc833952	-0.016018543
164	0xbd625752	-0.055259056
165	0xbdd8f879	-0.105942674
166	0xbc7ee235	-0.015556862
167	0xbd7d2d53	-0.061810803
168	0x3e218903	0.15774922
169	0x3db1ca42	0.08681156
170	0x3dd78547	0.105234675
171	0x3de16e11	0.110073216
172	0xbe20ac22	-0.15690663
173	0x3db56078	0.088562906
174	0x3cc65617	0.024210973
175	0xbd515ce0	-0.051113963
176	0x3cd802af	0.026368467
177	0xbdb315fc	-0.087444276
178	0xbdf3654c	-0.11884555
179	0xbde8c7d1	-0.11366237
180	0xbe0acb40	-0.13554096
181	0x3df19457	0.11795872
182	0xbd94f92f	-0.072740905
183	0x3d3d01a6	0.04614415
184	0x3d574240	0.052553415
185	0xbd9db01f	-0.07699608
186	0xbe25bc3e	-0.1618509
187	0x3b9a42c2	0.004707665
188	0x3d858e26	0.06521253
189	0x3c746295	0.014916082
190	0x3dfc7e60	0.123287916
191	0xbd6adb76	-0.0573382
192	0xbda101bd	-0.0786166
193	0x3d2e25ac	0.042516395
194	0xbc3a2ad8	-0.011362754
195	0x3d0db885	0.0345998
196	0xbd93edb9	-0.072230764
197	0x3e367d55	0.17821248
198	0xbdae7b3c	-0.08519599
199	0xbe3374d8	-0.17525041
200	0x3dd1990f	0.10234272
201	0xbd128605	-0.035772342
202	0xbdf200cf	-0.118165605
203	0xbd0c7f41	-0.034301046
204	0xbcc4eeca	-0.024039645
205	0x3dd484b1	0.103768714
206	0xbde4786e	-0.11155783
207	0x3d217c23	0.039425027
208	0x3e159c47	0.14610396
209	0x3e0f92bb	0.14020817
210	0x3e362a85	0.17789657
211	0x3dfdc3e6	0.1239088
212	0xbe1e7e5f	-0.15477894
213	0x3dd9e47e	0.106392846
214	0xbd2d6c86	-0.042339824
215	0xbde9a05e	-0.11407541
216	0x3dafb725	0.08579854
217	0x3e22d742	0.15902427
218	0xbe13d0f2	-0.14435175
219	0x3d8504ac	0.06495032
220	0xbc7e5186	-0.015522366
221	0x3e1a9565	0.15096052
222	0x3d172070	0.03689617
223	0x3d97bb1d	0.07408736
224	0x3de8258b	0.11335286
225	0xbdb17a38	-0.086658895
226	0x3c0912eb	0.008366327
227	0x3c1b73b8	0.009488039
228	0x3d06f19f	0.03294527
229	0x3c5434c9	0.012952038
230	0xbd437aaa	-0.047724403
231	0xbd594150	-0.053040802
232	0x3dac185d	0.084030844
233	0xbe067580	-0.1313076
234	0x3e1dd06f	0.15411542
235	0xbcfee4e1	-0.031114997
236	0x3e220b47	0.15824614
237	0x3e173cb3	0.14769249
238	0xbdfb38f4	-0.12266722
239	0x3d9c8dd6	0.076442406
240	0xbe08e707	-0.1336938
241	0xbd8561a5	-0.06512765
242	0x3e4352b3	0.19074516
243	0x3b34738a	0.0027534687
244	0x3ddeb800	0.10874939
245	0x3e0d20e2	0.13782075
246	0x3d583f99	0.052795026
247	0xbdf34544	-0.11878446
248	0x3e414b50	0.18876386
249	0xbd3aab46	-0.045573495
250	0xbdbf6a50	-0.093464494
251	0x3e170487	0.14747821
252	0x3df61a9f	0.12016796
253	0xbd1f2cd6	-0.03886112
254	0xbd5b014f	-0.053468045
255	0xbd9c56a4	-0.07633713

bias f4 [96]
0	0xbdf61a0f	-0.12016689
1	0x3b7360ed	0.003713663
2	0xbdade6a0	-0.08491254
3	0xbb99468f	-0.0046776007
4	0xbcf5b763	-0.029994672
5	0x3ddb287e	0.10701083
6	0x3d3e02b1	0.046389285
7	0xbe3e5879	-0.18588437
8	0x3de2d9f8	0.110767305
9	0x3df192af	0.11795556
10	0xbd63c5db	-0.05560861
11	0x3cd2fc54	0.025755085
12	0xbda2be5d	-0.07946465
13	0x3e0245f3	0.12721996
14	0x3a234213	0.00062278024
15	0x3b88f7f0	0.004179947
16	0x3e1d17e0	0.15341139
17	0xbd938e9c	-0.07204935
18	0xbd1708c9	-0.036873613
19	0xbd6a7bea	-0.05724708
20	0xbd08a20f	-0.033357676
21	0xbd8352a2	-0.06412245
22	0xbe3f9e42	-0.18712714
23	0x3db84663	0.089978
24	0xbcc1a9e0	-0.023640573
25	0x3d929245	0.07156805
26	0x3defe672	0.11713876
27	0xbe16c6f1	-0.14724328
28	0xbd1a112b	-0.03761403
29	0xbe0dada4	-0.1383577
30	0xbc807a07	-0.015683187
31	0xbe25f2b3	-0.16205864
32	0x3dd84472	0.1055993
33	0xbaea2efd	-0.0017866787
34	0x39f9fed8	0.00047682854
35	0xbd967d79	-0.07348151
36	0xbd7ba975	-0.061440904
37	0x3bafd895	0.0053663948
38	0xbd4928f1	-0.04911131
39	0xbe2bcae8	-0.16776621
40	0x3dd2570f	0.10270511
41	0xbce89602	-0.028391842
42	0xbe0d5627	-0.13802396
43	0xbe3c4cfe	-0.18388745
44	0x3b9dbc44	0.004813703
45	0xbe2c24dc	-0.16810936
46	0xbde27e2e	-0.11059223
47	0xbd285d4d	-0.041104604
48	0x3d84400a	0.06457527
49	0x3af9382c	0.0019013933
50	0xbdaefaa2	-0.08543898
51	0xbe3c29df	-0.18375348
52	0xbd123488	-0.03569463
53	0xbd97d891	-0.07414354
54	0x3d5759cc	0.05257587
55	0x3dba35a0	0.090922594
56	0xbd9d5c4f	-0.07683622
57	0xbe0abdec	-0.13549012
58	0xbe3b01fb	-0.18262474
59	0xbdbd612b	-0.09247049
60	0xbe12bebe	-0.14330575
61	0x3e025c81	0.127306
62	0x3cb89720	0.022533
63	0xbce3aa38	-0.027791128
64	0xbdca13c7	-0.098670535
65	0x3dffeae1	0.124959715
66	0xbca0f571	-0.019648286
67	0xbb3a0d26	-0.0028389185
68	0xbe158ad0	-0.14603734
69	0x3de88120	0.11352754
70	0x3c19b500	0.009381533
71	0x3d4035d5	0.04692634
72	0xbd89b1ee	-0.067233905
73	0x3e108d47	0.14116393
74	0xbccadbef	-0.024763076
75	0x3d1e5a74	0.03866048
76	0xbe0a61f5	-0.1351393
77	0x3db39ff2	0.087707415
78	0x3d5981fd	0.053102482
79	0x3e1a6438	0.15077293
80	0xbdb0d481	-0.08634282
81	0x3dfedbe0	0.124442816
82	0xbd24009c	-0.040039644
83	0x3d0b0bf7	0.033946957
84	0x3dee0da3	0.11623695
85	0xbdc30b1c	-0.09523603
86	0x3d944eb8	0.07241577
87	0x3da295af	0.07938706
88	0x3da539f9	0.08067698
89	0x3cdee7a0	0.027210057
90	0x3cf14e2e	0.029456224
91	0xbe027af5	-0.12742217
92	0xbd90289b	-0.07038995
93	0xbd8e4e28	-0.06948501
94	0x3d071abe	0.032984488
95	0xbe1658c1	-0.14682294

weight f4 [32, 96]
0	0x3d33fd8a	0.043942966
1	0xbb628547	-0.0034564303
2	0x3cd33833	0.025783634
3	0xbd0e11b4	-0.03468485
4	0xbd232b3c	-0.039836153
5	0xbd80036e	-0.06250654
6	0x3dab1a72	0.083546534
7	0x3dadd5c6	0.0848804
8	0xbdaefaa3	-0.08543899
9	0x3cf84ab0	0.030309051
10	0xbdd1826e	-0.102299556
11	0x3d58297b	0.052773934
12	0xbd82c097	-0.0638439
13	0x3d87937b	0.066199265
14	0x3da1e1d2	0.079044
15	0x3d05a937	0.03263208
16	0x3da8ec44	0.08248189
17	0xbd63ad8c	-0.05558543
18	0xbd55ba78	-0.052179784
19	0x3cfc2036	0.030777078
20	0x3d601c60	0.05471456
21	0x3cda0dd7	0.026617927
22	0xbc08a843	-0.008340898
23	0x3d53a7ff	0.051673885
24	0x3ca6f9f1	0.020382853
25	0xbd5c3774	-0.05376382
26	0xbd2866a8	-0.041113526
27	0x3d480eba	0.04884217
28	0xbdbf852f	-0.09351575
29	0x3d881701	0.06645013
30	0xbdce6a06	-0.10078816
31	0x3d9893d2	0.074500695
32	0x3d5cc177	0.05389544
33	0x3c7023c3	0.014656964
34	0xbd335ea4	-0.04379143
35	0x3d86dc95	0.065850414
36	0x3d87560e	0.066082105
37	0x3d3ea054	0.04653962
38	0x3cacaa93	0.02107743
39	0xbd3d2a61	-0.046182994
40	0xbd9d5875	-0.076828875
41	0xbdca80ff	-0.09887885
42	0xbd54b1f0	-0.051927507
43	0xbd46f448	-0.04857281
44	0xbd364a19	-0.04450426
45	0xbd0f6175	-0.03500505
46	0x3cbabddf	0.022795616
47	0x3d3e96d6	0.046530567
48	0x3d8ee578	0.069773614
49	0x3d03f973	0.032220315
50	0xbb48d61b	-0.0030645195
51	0xbc9da6e8	-0.019244626
52	0xbd96774b	-0.07346972
53	0xbdb7def4	-0.08978072
54	0xbde1760f	-0.11008846
55	0x3be262e6	0.0069087623
56	0xbddf6d66	-0.10909538
57	0x3c541edf	0.012946813
58	0x3d0a7c3d	0.03380989
59	0xbd889648	-0.06669289
60	0x3c8ed79c	0.017436795
61	0xbcda8f39	-0.026679622
62	0x3d3e1c93	0.04641397
63	0xbd407d07	-0.046994235
64	0xbd75bff8	-0.05999753
65	0xbcf414a2	-0.029794995
66	0xbc8388dc	-0.01605647
67	0xbb13343e	-0.0022461559
68	0xbd555f24	-0.052092686
69	0x3d4d9849	0.05019406
70	0xbc3efb8b	-0.011656652
71	0x3d7a7277	0.06114432
72	0xbd701851	-0.05861694
73	0xbd87f007	-0.066375785
74	0xbde3ded2	-0.11126484
75	0x3d58bdce	0.052915387
76	0xbd001eaa	-0.031279244
77	0x3cc2d296	0.023782056
78	0xbd805d24	-0.06267765
79	0x3ad78a97	0.0016444501
80	0xbc774bc6	-0.015093749
81	0xbd1db51f	-0.03850281
82	0xbc9b4632	-0.01895437
83	0x3d8b4f6b	0.06802257
84	0x3c2e382e	0.0106335115
85	0xbc4a7156	-0.012356123
86	0xbdd0359d	-0.10166476
87	0x3db73de6	0.08947353
88	0xbd5bc961	-0.053658847
89	0x3d942a6a	0.07234652
90	0xbd34c0ac	-0.04412906
91	0xbcb98848	-0.022647992
92	0x3d94417e	0.07239054
93	0x3d9cb245	0.0765119
94	0xbd23a7d6	-0.039954983
95	0x3d674ed8	0.056471676
96	0xbd1afb46	-0.03783729
97	0xbd9d33d6	-0.076759025
98	0xbc6c87e1	-0.014436693
99	0x3db9aed8	0.09066552
100	0xbcfabf30	-0.030608743
101	0x3dbbac86	0.091637656
102	0xbce48e80	-0.02789998
103	0x3d6afb2e	0.05736845
104	0x3c9ece42	0.01938546
105	0x3d485e79	0.04891822
106	0xbd250dde	-0.040296428
107	0xbbc47ef1	-0.005996578
108	0x3cbf2413	0.023332631
109	0x3ce698e7	0.028149081
110	0xbd76def9	-0.060271237
111	0x3d4e18fd	0.0503168
112	0x3dcd62f3	0.10028639
113	0x3d72ab0e	0.05924516
114	0x3d43bca9	0.047787342
115	0xbcd6b10b	-0.026207468
116	0x3dadca6a	0.08485873
117	0x3d6dbf44	0.058043733
118	0xbd4958c3	-0.049156915
119	0xbcc8e4fd	-0.024523253
120	0xbdabfb94	-0.08397594
121	0xbd7ac86c	-0.061226293
122	0xbcce873c	-0.02521097
123	0x3dc283a2	0.09497763
124	0x3dacd3af	0.08438813
125	0x3d9f3919	0.077745624
126	0xbca31600	-0.019907951
127	0x3d068f11	0.032851283
128	0xbc8df7e8	-0.017330125
129	0xbcad0456	-0.021120232
130	0x3d1e96c5	0.038718004
131	0x3c8f0209	0.017457025
132	0xbc6900aa	-0.01422135
133	0xbcc53465	-0.024072835
134	0x3dc79821	0.09745813
135	0xbc6d41da	-0.014481032
136	0x3d4a857d	0.04944371
137	0xbd30ffe9	-0.043212805
138	0xbd6574a1	-0.05601943
139	0x3d664b78	0.056224316
140	0x3d44a45a	0.0480083
141	0x3de4bbb4	0.11168614
142	0xbcac2ae1	-0.02101654
143	0x3d8bdf91	0.06829751
144	0xbdb37429	-0.0876239
145	0xbc5ce2e2	-0.013481827
146	0xbd47b384	-0.048755184
147	0x3d893141	0.066988476
148	0x3d003fdc	0.0313109
149	0xbda62051	-0.081116326
150	0x3d9f40c6	0.077760264
151	0x3de183fb	0.110115014
152	0x3ce2fd8d	0.027708793
153	0x3dbc2976	0.091875955
154	0xbdb6fd23	-0.08935001
155	0xbc47b47c	-0.012189027
156	0x3ddb0f8e	0.10696326
157	0xbdd980cc	-0.10620269
158	0x3d8235ca	0.06357916
159	0x3d20c9ef	0.03925508
160	0x3cec163c	0.028819196
161	0xbd91d85b	-0.07121345
162	0xbda458a0	-0.080247164
163	0x3d410ad3	0.047129463
164	0x3d0e8346	0.03479316
165	0xbcafad81	-0.021445038
166	0x3cc56ad9	0.0240988
167	0xbcfca8df	-0.030842243
168	0x3b539866	0.0032286881
169	0x3bad660c	0.005291706
170	0x3bb9e2b4	0.005672777
171	0x3d90f731	0.07078398
172	0x3dd0cd29	0.10195381
173	0xbda2f254	-0.07956377
174	0xbda431f1	-0.08017338
175	0x3c4c160f	0.012456431
176	0xbd21ce9c	-0.03950368
177	0x3d456af6	0.04819771
178	0x3d99392d	0.074816085
179	0xbd994506	-0.07483868
180	0xbdac3133	-0.084078215
181	0x3c27b18c	0.010235202
182	0xbd8f573f	-0.06999063
183	0xbc9d81a3	-0.019226855
184	0x3c1e5dc7	0.009665913
185	0xbd4d337b	-0.050097924
186	0x3d350891	0.044197623
187	0x3da40236	0.08008234
188	0xbda9caba	-0.0829062
189	0xbdb0cbb4	-0.08632603
190	0xbd6c3b72	-0.05767388
191	0xbcb16371	-0.021653863
192	0xbb3d9e13	-0.002893333
193	0xbd3a251f	-0.045445558
194	0xbd055afc	-0.032557473
195	0xbcc94854	-0.024570622
196	0x3d966f44	0.07345441
197	0x3d8e593b	0.06950613
198	0xbd553db9	-0.052060816
199	0x3ca576f4	0.020198323
200	0x3d05869c	0.032599077
201	0xbd08eb6d	-0.033427645
202	0x3c17b30e	0.009258999
203	0xbcfc9f57	-0.030837698
204	0xbd471424	-0.048603192
205	0x3d1f5d7b	0.03890751
206	0x3db02017	0.08599871
207	0xbd00d7a1	-0.03145564
208	0xbd9e7880	-0.07737827
209	0xbd4255ad	-0.047444988
210	0x3d85d422	0.06534602
211	0x3dca8e18	0.098903835
212	0xbdc93cd6	-0.09826057
213	0x3d6da759	0.058020923
214	0xbd755796	-0.05989798
215	0xbda0d3e4	-0.07852915
216	0xbbbcd6c0	-0.005762905
217	0xbd77efd1	-0.06053144
218	0xbc7b60b0	-0.015342876
219	0xbd839c2f	-0.06426274
220	0xbd33cbfa	-0.0438957
221	0xbd0d23b0	-0.034457862
222	0x3b760c2a	0.0037543871
223	0x3d84baca	0.0648094
224	0xbd69f172	-0.057115026
225	0x3d3e034f	0.046389874
226	0x3c258d3b	0.010104473
227	0x3dbf8c83	0.09352972
228	0xbdd136a3	-0.10215499
229	0xbdb3a069	-0.0877083
230	0xbd1be76f	-0.03806251
231	0xbcb2bf36	-0.021819692
232	0xbc801c9d	-0.015638644
233	0x3d6640ec	0.056214258
234	0x3c9e49e7	0.019322349
235	0x3d8f0f46	0.06985335
236	0xbc279a08	-0.010229595
237	0x3dc0f3a9	0.094214745
238	0xbcc22f38	-0.023704156
239	0x3d9f5e5d	0.0778167
240	0xbbbce0f4	-0.005764121
241	0xbc0d29ee	-0.008615954
242	0x3dbe13d2	0.09281124
243	0xbd6ab1f2	-0.057298608
244	0x3d097bf7	0.033565488
245	0x3d8fd8b3	0.07023754
246	0x3d3af0d5	0.04563983
247	0x3d55184b	0.05202512
248	0x3d77e76d	0.06052344
249	0x3cf0048d	0.029299045
250	0x3dabd4f6	0.083902285
251	0xbd1cf764	-0.038321868
252	0x3d7be915	0.06150158
253	0xbdc9c71b	-0.098524295
254	0x3d91b791	0.07115091
255	0xbdca2dbe	-0.09872006

bias f4 [32]
0	0xbda62b39	-0.08113713
1	0x3de1a3d3	0.11017575
2	0xbd1eedcb	-0.038800996
3	0xbdaf34ba	-0.08554979
4	0x3c21cf94	0.009876151
5	0x3cf94add	0.030431205
6	0xbb3274ef	-0.0027230342
7	0x3d845518	0.06461543
8	0xbcde22ce	-0.027116206
9	0xbd860024	-0.065429956
10	0x3dc42c51	0.09578765
11	0xbd6c1375	-0.057635743
12	0x3d0c02a0	0.03418219
13	0xbba377c1	-0.004988641
14	0x3d3c2c48	0.045940667
15	0x3c5240e3	0.012832853
16	0x3d82214c	0.06354007
17	0x3d671036	0.056411944
18	0x3d1deeab	0.03855769
19	0xbd605202	-0.05476571
20	0xbdb470a6	-0.088105485
21	0x3d3b9f5b	0.04580627
22	0x3dacaf1e	0.084318385
23	0x3da43476	0.08017819
24	0xbd2f2ed4	-0.04276927
25	0x3afb2d3d	0.0019163262
26	0xbda9bff0	-0.08288562
27	0xbc4b8fec	-0.01242445
28	0xbd022d9f	-0.03178179
29	0xbd87551a	-0.06608029
30	0xbd34a55d	-0.044103015
31	0x3dc3a9bf	0.09553861
