models/MATBENCH/MEGNET/src/sae/model.blocks.1.conv.edge_func.layers.2.pkl (torch, 103240 bytes, 4 tensors)

weight f4 [192, 64]
0.062724374 -0.010446554 -0.11377728 0.08385614 0.027088473 0.028512033 -0.03798233 -0.015517624
-0.09658418 -0.060733013 0.07674319 0.076028615 0.06638747 -0.055459026 0.06515343 0.12548764
-0.06299727 -0.097611405 -0.07825193 0.10313973 -0.044723988 -0.00015595547 0.009768439 0.07390502
-0.037775815 0.00015900278 0.040910274 -0.08928779 -0.08810596 0.06840012 -0.027848154 0.0023429543
-0.1005055 -0.08674511 -0.034845974 -0.062826194 0.079638615 -0.11052971 -0.00020022807 0.002915159
-0.057199366 0.00018617345 -0.032995548 0.031788126 0.08497106 0.007884873 -0.032788586 0.01707844
0.033175673 0.11007342 0.1240114 0.094717406 0.11316537 -0.0758448 0.0875833 -0.019501299
-0.048412215 -0.051295057 -0.012048276 0.13008408 0.046854034 0.06211087 -0.062071722 -0.10054025
0.09811789 0.061098535 -0.07495803 0.0024946753 0.11120287 -0.12208414 -0.038050372 0.004686115
0.06518343 -0.08456069 0.09294245 0.016743813 0.09554453 0.030161604 0.081541225 -0.10912884
0.12617217 0.0586722 0.00017724352 0.082957126 -0.042269208 -0.08390211 -0.10926237 0.012744842
-0.026648184 0.035642598 -0.031899616 0.023853384 0.098267324 0.019696767 -0.13203812 -0.12414024
0.08211436 -0.0818702 0.09088568 -0.034051903 0.03699832 0.07521278 -0.10407304 0.11750159
0.07354936 -0.07240619 -0.08526621 -0.039048195 0.06707239 -0.11950053 -0.098246925 -0.039529987
0.06291404 0.09681012 0.13578053 -0.12937719 -0.067983024 0.13530858 0.101892814 -0.020217607
-0.06498409 0.081284486 0.03188006 -0.10536292 -0.02046072 -0.091971606 0.11374545 -0.05941852
0.0070597786 -0.13538556 -0.1184616 0.06109771 -0.12607163 0.07708947 -0.021171723 -0.11055471
-0.053963773 -0.11565755 -0.060090862 0.03703776 0.085191175 -0.017777612 -0.043557703 -0.072832435
-0.11784278 0.072822526 0.03160743 -0.031797983 0.08298422 -0.11417976 -0.030511936 -0.04325722
-0.08459049 -0.098234154 0.06561368 0.053757146 0.08732632 -0.0900643 0.11189818 -0.06874954
0.10653685 0.013176954 -0.05519513 0.04802685 0.029628979 0.10264791 -0.08243741 0.011594788
-0.05402553 0.10856181 0.0004149814 0.097334065 0.033918917 0.016854107 0.037401944 0.05560208
0.0985247 -0.1349429 -0.07856499 0.06593895 -0.0693061 -0.03877423 0.12912737 0.04038382
0.035240583 0.021715157 0.0727854 -0.08870636 0.071023375 0.08509548 -0.06214074 -0.011705466
-0.11011363 0.06213673 -0.02846334 -0.01506491 -0.024557456 -0.0965626 -0.032741223 -0.022222247
0.12680681 -0.065753706 0.08955988 0.07857525 0.019716036 -0.054380685 -0.12746778 0.08081428
-0.048333216 -0.092769586 0.10950716 -0.108117245 -0.033260696 -0.12545736 0.012898639 -0.121896505
-0.09639673 0.059462566 0.04697297 -0.051757466 0.11786006 0.013818059 -0.13821433 -0.06263981
-0.0790161 0.07589118 -0.09548511 -0.08677926 -0.008107356 0.08672235 0.08304793 0.078510866
0.1050657 -0.040747445 0.09836923 -0.11767498 0.108394235 0.07557495 0.009867355 0.03658417
0.039501507 0.045535363 -0.10104651 0.056232702 0.10616619 -0.07962978 0.008297374 0.00930997
0.11490883 0.042538933 -0.12649955 0.05015153 -0.04098 0.034223735 0.111890696 0.112534136
00000000: a375 803d 0628 2bbc 1004 e9bd c5bc ab3d
00000010: a5e8 dd3c 1192 e93c 5c93 1bbd a23d 7ebc
00000020: edcd c5bd 2ec3 78bd 892b 9d3d e4b4 9b3d
00000030: 27f6 873d 0129 63bd 296f 853d d57f 003e
00000040: b604 81bd 7de8 c7bd 8c42 a0bd ec3a d33d
00000050: 8030 37bd fa87 23b9 ce0b 203c 845b 973d
00000060: d0ba 1abd fcb9 2639 8891 273d 84dc b6bd
00000070: e670 b4bd 5d15 8c3d d021 e4bc 408c 193b
00000080: d4d5 cdbd 6ca7 b1bd a7ba 0ebd 05ab 80bd
00000090: 9219 a33d 675d e2bd 50f4 51b9 410c 3f3b
000000a0: e249 6abd 8e37 4339 5726 07bd 4434 023d
000000b0: 4f05 ae3d 8e2f 013c 534d 06bd 16e8 8b3c
000000c0: 37e3 073d 2c6e e13d b0f9 fd3d 33fb c13d
000000d0: 3fc3 e73d 8554 9bbd e05e b33d 30c1 9fbc
000000e0: e34b 46bd c41a 52bd 2266 45bc c334 053e
000000f0: 04ea 3f3d f867 7e3d eb3e 7ebd 0ce8 cdbd
00000100: 08f2 c83d 7542 7a3d 9883 99bd b57d 233b
00000110: 55be e33d 4007 fabd b5da 1bbd fb8d 993b
00000120: e47e 853d 282e adbd 9c58 be3d 522a 893c
00000130: daac c33d 7815 f73c 16ff a63d f17e dfbd
00000140: 4733 013e 4352 703d 72da 3939 6de5 a93d
00000150: 7a22 2dbd dfd4 abbd f3c4 dfbd becf 503c
00000160: 4b4d dabc f9fd 113d 2ca9 02bd 2c68 c33c
00000170: 6140 c93d 1d5b a13c 0035 07be 3d3d febd
00000180: 932b a83d 90ab a7bd 4522 ba3d 027a 0bbd
00000190: 8d8b 173d 2809 9a3d 3f24 d5bd aca4 f03d
000001a0: 0ca1 963d b249 94bd 0da0 aebd 00f1 1fbd
000001b0: 405d 893d b2bc f4bd af35 c9bd 32ea 21bd
000001c0: 14d9 803d 6244 c63d 0d0a 0b3e 747b 04be
000001d0: af3a 8bbd 558e 0a3e 2ead d03d 659f a5bc
000001e0: 6116 85bd 7b78 a63d aa94 023d 84c8 d7bd
000001f0: 3d9d a7bc 9c5b bcbd 60f3 e83d d660 73bd
00000200: b755 e73b 83a2 0abe ff9b f2bd 9841 7a3d
00000210: ec18 01be 16e1 9d3d 5270 adbc 826a e2bd
00000220: 1e09 5dbd dedd ecbd d621 76bd e8b4 173d
00000230: b678 ae3d 5ba2 91bc 9069 32bd 2c29 95bd
00000240: 8e57 f1bd fa23 953d cb76 013d 9a3e 02bd
00000250: a1f3 a93d 14d7 e9bd 2bf4 f9bc 7c2e 31bd
00000260: c73d adbd fd2e c9bd 7760 863d 7430 5c3d
00000270: 24d8 b23d a273 b8bd df2a e53d 8fcc 8cbd
00000280: fe2f da3d 27e4 573c 4a14 62bd cdb7 443d
00000290: 79b8 f23c 1139 d23d f2d4 a8bd 11f8 3d3c
000002a0: e049 5dbd a755 de3d dc91 d939 1557 c73d
000002b0: 90ee 0a3d a011 8a3c c832 193d 02bf 633d
000002c0: 51c7 c93d 792e 0abe aee6 a0bd 000b 873d
000002d0: 5bf0 8dbd bad1 1ebd f739 043e 8169 253d
000002e0: 6e58 103d fce3 b13c 8310 953d aeab b5bd
000002f0: b474 913d 8a46 ae3d 4a87 7ebd 48c8 3fbc
00000300: 4183 e1bd 1583 7e3d f32b e9bc d0d2 76bc
00000310: b82c c9bc 9dc2 c5bd a91b 06bd 6e0b b6bc
00000320: a5d9 013e e1a9 86bd 2c6b b73d 10ec a03d
00000330: 8683 a13c 48be 5ebd ea86 02be f581 a53d
00000340: 0df9 45bd fbfd bdbd 4a45 e03d 936c ddbd
00000350: 5e3c 08bd e577 00be d054 533c e0a4 f9bd
00000360: a66b c5bd 058f 733d bb66 403d a3ff 53bd
00000370: 9d60 f13d 2465 623c 0f88 0dbe 4d49 80bd
00000380: 31d3 a1bd d66c 9b3d b38d c3bd 53b9 b1bd
00000390: b7d4 04bc 7d9b b13d 0815 aa3d 4eca a03d
000003a0: b02c d73d cbe6 26bd cf75 c93d 94ff f0bd
000003b0: ccfd dd3d 0ac7 9a3d b0aa 213c 48d9 153d
000003c0: 55cc 213d 4a83 3a3d 79f1 cebd 4354 663d
000003d0: a96d d93d f014 a3bd b5f1 073c d888 183c
000003e0: 5255 eb3d 4e3d 2e3d 1989 01be b16b 4d3d
000003f0: a5da 27bd 302e 0c3d f326 e53d 4c78 e63d

bias f4 [192]
-0.062721774 0.059401676 -0.034479033 0.11281561 0.086709954 0.07464723 0.033670746 -0.036706
0.05186997 -0.015073184 -0.048810866 0.072975434 -0.05012746 0.035076424 -0.07527142 0.10784048
0.042376943 0.06117664 -0.06562155 -0.115400635 -0.10370302 0.11350801 -0.11928867 -0.050658643
-0.068923794 0.09498863 -0.10369186 0.089933455 0.055829998 0.06841691 -0.025679637 -0.016332723
0.07383547 -0.014461153 0.04739503 0.04101085 0.018244695 0.018104333 0.01867285 -0.037251618
-0.02680437 -0.09886129 -0.008604429 -0.06443534 -0.135588 -0.1217305 -0.043474555 0.052552406
0.10202986 -0.07156331 0.023130853 -0.101675734 -0.046090975 0.07436245 -0.06785919 0.07829567
-0.08548027 -0.11343202 -0.09323339 -0.013801851 0.029660767 -0.04290476 0.06629253 -0.040844873
0.01185362 0.07492077 -0.013962687 -0.019135822 0.06476896 0.05015357 -0.029691368 -0.015609201
-0.015671857 0.09443856 -0.09436388 0.088555984 -0.10359174 -0.098587014 0.007589806 -0.09874495
0.11483854 0.10294881 0.051577818 -0.08034636 -0.018493867 0.07207096 -0.094478086 0.0039452296
-0.030514477 -0.048033986 -0.03305194 0.10223647 0.008765762 -0.074838795 -0.02664748 0.054647546
-0.08203516 -0.005876587 0.06276389 0.051119074 0.06265698 0.12747307 0.07226005 -0.12499321
0.11973814 0.109579004 0.027659945 0.10599632 -0.050571635 0.021283064 -0.082444265 0.073603295
0.00045690453 -0.07978038 0.1141281 0.011357851 0.080397926 -0.019787831 0.020254519 -0.0015550829
0.027523713 -0.072622776 -0.036778025 -0.083464086 0.10881032 0.061908036 -0.12186206 -0.007118715
0.0979044 -0.09696484 -0.055249836 0.053615183 0.014173875 -0.102904566 0.07915641 0.03776086
0.04940478 0.099673055 -0.05185852 -0.026718294 0.03310558 -0.034395024 0.07767349 -0.08799036
0.084203765 0.086048335 0.04012021 -0.09654658 -0.01341239 0.11269509 0.07408758 -0.083598636
0.005829553 -0.108906545 0.002126051 -0.09781881 0.108047396 0.09730941 0.034897275 0.08309548
0.039482843 -0.054273363 0.050733373 -0.099929035 0.01571151 -0.015787689 -0.036357123 0.09630795
-0.016948326 0.07657412 -0.11548604 -0.06495293 0.11723193 0.090165175 0.08608996 0.038803734
0.1168209 0.07971712 0.023561504 -0.099120386 -0.06339233 -0.015568478 -0.054658823 -0.120077506
-0.06116686 -0.07776343 -0.06647693 0.09417126 -0.021293964 0.045217775 -0.081737414 -0.07339864
00000000: 4674 80bd 2c4f 733d e339 0dbd df0b e73d
00000010: fd94 b13d a6e0 983d 56ea 093d 0859 16bd
00000020: 9b75 543d 84f5 76bc e7ed 47bd 2574 953d
00000030: 7452 4dbd 4cac 0f3d e727 9abd 78db dc3d
00000040: 7293 2d3d 5b94 7a3d 9764 86bd 2b57 ecbd
00000050: 4062 d4bd e376 e83d 9e4d f4bd 707f 4fbd
00000060: eb27 8dbd 6689 c23d 665c d4bd 082f b83d
00000070: ffad 643d 2a1e 8c3d 1a5e d2bc 34cc 85bc
00000080: 0d37 973d 79ee 6cbc 4a21 423d fefa 273d
00000090: e675 953c 8a4f 943c cef7 983c 2795 18bd
000000a0: d794 dbbc ca77 cabd 97f9 0cbc adf6 83bd
000000b0: 95d7 0abe d74d f9bd 6012 32bd 3141 573d
000000c0: 08f5 d03d c98f 92bd ea7c bd3c 5e3b d0bd
000000d0: e4c9 3cbd 574b 983d c2f9 8abd 7b59 a03d
000000e0: 4810 afbd 0c4f e8bd 26f1 bebd 2921 62bc
000000f0: 23fb f23c e7bc 2fbd 61c4 873d f44c 27bd
00000100: b035 423c 1070 993d c1c3 64bc bac2 9cbc
00000110: 97a5 843d d46d 4d3d 503b f3bc bcbd 7fbc
00000120: 4462 80bc 0169 c13d da41 c1bd d75c b53d
00000130: e827 d4bd fde7 c9bd e8b3 f83b cb3a cabd
00000140: 7830 eb3d d3d6 d23d 4343 533d a28c a4bd
00000150: 7380 97bc f199 933d ba7d c1bd fc46 813b
00000160: 7ff9 f9bc 49bf 44bd 7961 07bd 5b61 d13d
00000170: 459e 0f3c 1545 99bd d14b dabc 1bd6 5f3d
00000180: 0d02 a8bd 6290 c0bb 5b8a 803d 3c62 513d
00000190: 4d52 803d 4d88 023e 14fd 933d 71fc ffbd
000001a0: 4539 f53d f56a e03d 1c97 e23c 9914 d93d
000001b0: 3424 4fbd d259 ae3c 8ad8 a8bd 53bd 963d
000001c0: b08c ef39 e563 a3bd febb e93d 4816 3a3c
000001d0: aba7 a43d 171a a2bc ceec a53c ecd3 cbba
000001e0: 6979 e13c 40bb 94bd 8ea4 16bd 38ef aabd
000001f0: f2d7 de3d 4893 7d3d d192 f9bd 1c44 e9bb
00000200: 1a82 c83d 8195 c6bd a74d 62bd 989b 5b3d
00000210: 8a39 683c a1bf d2bd c21c a23d 22ab 1a3d
00000220: ab5c 4a3d 6321 cc3d 9969 54bd 53e0 dabc
00000230: b799 073d cce1 0cbd 4713 9f3d 4a34 b4bd
00000240: 0673 ac3d 1c3a b03d 1755 243d 37ba c5bd
00000250: a4bf 5bbc afcc e63d 3bbb 973d c335 abbd
00000260: d605 bf3b 650a dfbd 3855 0b3b 3a55 c8bd
00000270: f447 dd3d 284a c73d 72f0 0e3d f72d aa3d
00000280: c3b8 213d bf4d 5ebd cccd 4f3d 98a7 ccbd
00000290: 6db5 803c 2f55 81bc 35eb 14bd 1a3d c53d
000002a0: 37d7 8abc e4d2 9c3d f283 ecbd 0b06 85bd
000002b0: 4b17 f03d 85a8 b83d ef4f b03d aaf0 1e3d
000002c0: cc3f ef3d bb42 a33d 0e04 c13c a1ff cabd
000002d0: d7d3 81bd ee12 7fbc eee1 5fbd 32eb f5bd
000002e0: 1a8a 7abd 6f42 9fbd 0f25 88bd dddc c03d
000002f0: ae70 aebc 4636 393d f265 a7bd 0752 96bd

weight f4 [64, 192]
0.017978024 0.08290167 0.06505547 0.05545694 0.059653398 -0.022562955 0.019815754 -0.015417676
-0.049558263 0.02718558 -0.077491224 0.02031426 0.013075269 0.05645595 -0.05873291 -0.031301174
-0.05900816 0.05187921 -0.02797356 0.0073308144 -0.025816945 0.026863271 -0.07359396 -0.0057197823
-0.0458221 0.018163105 0.05307253 0.03547267 -0.0115521215 -0.016533911 0.02483337 -0.042929206
-0.06248131 0.032411374 -0.006169959 -0.0007904958 -0.047915716 0.06748958 -0.07069837 -0.07066533
0.015337252 -0.03023222 0.0015925702 0.046719134 -0.039848994 -0.053467575 -0.07087244 0.028973987
-0.0026425528 -0.046738807 -0.031731743 -0.049022797 0.031042479 -0.08147168 0.043294247 -0.028632805
0.04140372 -0.04961097 -0.050702386 -0.027510151 0.004764509 -0.086843885 -0.08814618 -0.049617693
0.029176608 0.027142305 -0.02458338 0.043280054 -0.059154857 0.012059544 -0.024299368 0.060402382
0.0012877146 -0.035830196 -0.012534959 0.05217647 -0.085991666 -0.087693416 0.0047565727 0.054213405
-0.0065554245 -0.04529314 0.044160657 -0.08514707 -0.051229563 -0.029571991 0.047135826 -0.019443464
-0.044875618 -0.0017551344 0.06281106 0.048379112 -0.021486323 0.07231158 -0.06222607 0.06061763
0.043703504 0.022071801 0.00040501874 0.04592814 0.044871937 0.0055811224 -0.08159507 -0.0125981765
-0.051689338 0.030287579 0.0139645655 -0.05032715 -7.144979e-05 -0.037175696 0.055262752 -0.053022407
-0.04637475 -0.05427752 -0.08440591 0.03006225 -0.050189182 -0.057633642 -0.06549399 -0.047931913
0.01860803 -0.043235376 0.050045993 0.043637972 -0.07259668 0.07981102 -0.08323039 0.0057495562
-0.051439513 0.024136478 -0.0764801 -0.06246599 -0.046817772 0.022852564 0.045763616 -0.02584347
0.0058762715 -0.08081696 0.027021809 -0.037919182 -0.05665065 0.0045159897 0.07517823 -0.030670986
0.010434145 0.017576179 -0.047826014 0.08484093 -0.06498024 0.021603497 0.06678057 -0.035245083
-0.07884673 -0.002348151 0.007105199 -0.052592922 0.035907406 -0.056543197 -0.04860615 0.04243382
-0.06696703 -0.07204199 0.013543817 -0.015228662 0.038282216 -0.04816081 -0.013433563 0.059243698
-0.057911392 -0.08012808 0.069394805 -0.055203874 -0.042390965 -0.0149376225 0.032302763 0.07954508
0.014186386 -0.030451398 0.06817251 -0.024365176 0.05582914 -0.0092790555 -0.01537993 -0.004000088
0.050329875 -0.040501475 0.034240562 0.06268188 -0.046191085 -0.05752876 -0.0036434524 -0.04328658
-0.017478667 -0.06625628 -0.054836188 -0.012114937 -0.036240254 0.0505498 -0.08313193 -0.055459324
-0.08786311 -0.031274457 0.022162333 -0.012430161 -0.022741638 -0.0003431713 -0.058487408 0.028343063
-0.04388944 -0.0356811 -0.026489006 0.051923685 -0.08287172 -0.08504215 -0.026312118 0.051644575
4.728674e-05 0.01715472 0.034726664 0.02556533 -0.03504221 0.052888446 0.046547987 0.047435027
-0.034571834 -0.006013112 -0.0851976 -0.028138552 0.034750927 -0.049573116 -0.078484185 0.0061611277
-0.08762103 -0.004511283 2.0049047e-05 0.0364596 0.043101557 -0.08544678 0.036381517 -0.022964336
0.010083272 0.007939177 0.021449076 0.012628762 0.0010135906 -0.059383214 -0.028240113 0.047442645
-0.0776001 0.016045434 -0.02621553 0.03467554 -0.050744597 0.0116236955 -0.037470665 0.043217525
00000000: a646 933c 5ac8 a93d cd3b 853d d126 633d
00000010: 1f57 743d f2d5 b8bc a654 a23c 6c9a 7cbc
00000020: 9bfd 4abd 4bb4 de3c b8b3 9ebd 176a a63c
00000030: a739 563c 5b3e 673d eb91 70bd a935 00bd
00000040: 8ab2 71bd 4b7f 543d cf28 e5bc 5437 f03b
00000050: 0f7e d3bc 5d10 dc3c 6eb8 96bd 036d bbbb
00000060: f4af 3bbd cbca 943c 9562 593d ca4b 113d
00000070: 1c45 3dbc 2072 87bc 5a6f cb3c 89d6 2fbd
00000080: 67ec 7fbd cac1 043d 5e2d cabb 4639 4fba
00000090: 4543 44bd fa37 8a3d 4fca 90bd fcb8 90bd
000000a0: 1949 7b3c 90a9 f7bc cabd d03a 905c 3f3d
000000b0: b338 23bd d100 5bbd 9225 91bd db5a ed3c
000000c0: ae2e 2dbb 3171 3fbd 25f9 01bd 21cc 48bd
000000d0: cc4c fe3c a0da a6bd 4f55 313d 588f eabc
000000e0: f296 293d df34 4bbd 4ead 4fbd f85c e1bc
000000f0: 991f 9c3b 35db b1bd fc85 b4bd ec3b 4bbd
00000100: c803 ef3c 8a59 de3c 1663 c9bc 6d46 313d
00000110: 5d4c 72bd 6595 453c 780f c7bc 7d68 773d
00000120: 88c8 a83a afc2 12bd 6e5f 4dbc ffb6 553d
00000130: 661c b0bd 9b98 b3bd 06dd 9b3b e00e 5e3d
00000140: e3ce d6bb 4d85 39bd cee1 343d 9661 aebd
00000150: 17d6 51bd f640 f2bc 7f11 413d e647 9fbc
00000160: 7fcf 37bd 8a0c e6ba 16a3 803d 2d29 463d
00000170: 1604 b0bc 1818 943d c3e0 7ebd 314a 783d
00000180: 7202 333d eccf b43c b258 d439 251f 3c3d
00000190: a3cb 373d d9e1 b63b 511b a7bd 9568 4ebc
000001a0: 33b8 53bd a81d f83c a2cb 643c d723 4ebd
000001b0: 50d7 95b8 8b45 18bd 325b 623d 062e 59bd
000001c0: 73f3 3dbd 1b52 5ebd 01dd acbd 1c45 f63c
000001d0: 2c93 4dbd 4111 6cbd b721 86bd 4154 44bd
000001e0: de6f 983c 9417 31bd 07fd 4c3d bbbd 323d
000001f0: 91ad 94bd f673 a33d b274 aabd c666 bc3b
00000200: 3db2 52bd ddb9 c53c 99a1 9cbd 57dc 7fbd
00000210: fec3 3fbd 4d35 bb3c a172 3b3d afb5 d3bc
00000220: bd8d c03b 5d83 a5bd d75c dd3c 2551 1bbd
00000230: 830a 68bd defa 933b 0bf7 993d b841 fbbc
00000240: faf3 2a3c ebfb 8f3c 36e5 43bd 15c1 ad3d
00000250: 5c14 85bd d1f9 b03c 40c4 883d 265d 10bd
00000260: 657a a1bd 70e3 19bb bbd2 e83b ad6b 57bd
00000270: a513 133d d799 67bd 3e17 47bd 16cf 2d3d
00000280: 0326 89bd c08a 93bd e3e6 5d3c a381 79bc
00000290: d0cd 1c3d 4544 45bd 7218 5cbc 85a9 723d
000002a0: 7f34 6dbd 311a a4bd dd1e 8e3d 751d 62bd
000002b0: 26a2 2dbd eebc 74bc e74f 043d 88e8 a23d
000002c0: 046e 683c 3675 f9bc 079e 8b3d 7a99 c7bc
000002d0: 19ad 643d 2e07 18bc 1afc 7bbc 2c13 83bb
000002e0: b326 4e3d e0e4 25bd d53f 0c3d 5c5f 803d
000002f0: dd32 3dbd 47a3 6bbd fdc6 6ebb 454d 31bd
00000300: 6c2f 8fbc 5fb1 87bd e99b 60bd bb7d 46bc
00000310: a970 14bd 4f0d 4f3d 1341 aabd 5129 63bd
00000320: 93f1 b3bd a519 00bd c88d b53c e0a7 4bbc
00000330: ac4c babc aceb b3b9 7e90 6fbd b62f e83c
00000340: 6ac5 33bd 5826 12bd 79ff d8bc eead 543d
00000350: a6b8 a9bd 942a aebd 838c d7bc 4389 533d
00000360: c055 4638 0e88 8c3c 8c3d 0e3d 626e d13c
00000370: 6c88 0fbd 8ea1 583d 1aa9 3e3d 3b4b 423d
00000380: 329b 0dbd a409 c5bb 147c aebd d282 e6bc
00000390: fd56 0e3d 2e0d 4bbd 51bc a0bd 49e3 c93b
000003a0: a872 b3bd 62d3 93bb 002f a837 a956 153d
000003b0: 428b 303d b9fe aebd c904 153d b41f bcbc
000003c0: 4f34 253c 5213 023c f9b5 af3c dee8 4e3c
000003d0: 75da 843a d03b 73bd cf57 e7bc 3853 423d
000003e0: cdec 9ebd b771 833c f3c1 d6bc f007 0e3d
000003f0: 91d9 4fbd 5071 3e3c d77a 19bd dc04 313d

bias f4 [64]
-0.047950532 -0.08396844 0.030537864 -0.030002605 -0.011809887 -0.06783361 -0.0053234985 0.054374546
-0.0148038985 0.01744953 -0.01991279 -0.068771936 0.042128853 0.038590785 0.04505219 -0.033399273
-0.018598044 0.047384914 -0.06811827 0.0040941644 0.048845325 -0.0071126516 -0.051700108 0.02569849
-0.0074472334 0.047014162 -0.04536118 -0.010116123 0.017223636 0.009020408 -0.028984562 -0.009596204
-0.0009446146 -0.05571867 -0.0025375204 0.021473898 -0.04960834 -0.083918616 -0.08586745 -0.05885681
0.04952264 -0.045791227 -0.025561957 -0.03260725 0.004444169 -0.0500337 -0.048797783 -0.050155975
-0.0675708 0.026558327 0.0064999936 -0.011376234 0.037236042 -0.012642101 -0.032689106 0.0053094053
0.051585224 -0.025133122 -0.038290583 0.062053073 -0.073015094 -0.01761512 -0.024667535 -0.065348476
00000000: c767 44bd a5f7 abbd 8b2a fa3c 06c8 f5bc
00000010: 427e 41bc 59ec 8abd be70 aebb d8b7 5e3d
00000020: 0d8c 72bc 51f2 8e3c 2620 a3bc 4dd8 8cbd
00000030: 4e8f 2c3d 5f11 1e3d a588 383d adcd 08bd
00000040: ed5a 98bc af16 423d 9781 8bbd 5728 863b
00000050: 0912 483d 3f11 e9bb 7ec3 53bd a485 d23c
00000060: ec07 f4bb ec91 403d a5cc 39bd 18be 25bc
00000070: 9518 8d3c 55ca 133c 0871 edbc 6639 1dbc
00000080: 03a0 77ba 4339 64bd 874c 26bb 07ea af3c
00000090: 1d32 4bbd 86dd abbd 46db afbd d713 71bd
000000a0: 40d8 4a3d 958f 3bbd 4f67 d1bc 2e8f 05bd
000000b0: 64a0 913b 23f0 4cbd 2fe0 47bd 5a70 4dbd
000000c0: 8f62 8abd d990 d93c e6fd d43b 6263 3abc
000000d0: d284 183d d120 4fbc 03e5 05bd 85fa ad3b
000000e0: 074b 533d fae3 cdbc 96d6 1cbd 5d2b 7e3d
000000f0: f088 95bd 964d 90bc 9213 cabc 6cd5 85bd
