models/MATBENCH/MEGNET/src/sae/model.blocks.2.conv.node_func.layers.3.ssp.pkl (torch, 10408 bytes, 4 tensors)

weight f4 [48, 16]
000000 82 d0 bd 3c c8 ea 7c be 9f f6 4b bc 1b 00 b9 3d
       0.023170713 -0.24698937 -0.012448936 0.09033223
000010 da b2 5b 3e 2b 8d 5c 3e c6 eb f0 3b 63 a4 66 3e
       0.21454945 0.21538226 0.007352325 0.22523646
000020 06 4c b3 3b 88 ee 53 bd d8 79 2c 3e 20 cb 28 3e
       0.005471709 -0.051741153 0.16843355 0.16483736
000030 90 ec 54 bd 00 b7 44 3d d9 87 4b 3e e0 88 6f be
       -0.051983416 0.048026085 0.1987604 -0.23392057
000040 9c ea 4b be 8a b7 50 be 9e 5a b6 3d 26 d2 19 3d
       -0.19913715 -0.20382515 0.089040026 0.03755393
000050 e0 f4 6d bd be ff 48 3d 80 39 76 3d 9d 1e cb bd
       -0.05809486 0.04907202 0.06011343 -0.099179484
000060 1c bc 35 3e f7 e8 07 be b3 a9 72 be 9b 1c 70 bd
       0.1774754 -0.13272463 -0.23697548 -0.05862103
000070 36 7f 5c be 3d 41 4f 3e 60 f5 2b be 99 64 2c 3e
       -0.21532902 0.2023973 -0.16792822 0.1683525
000080 bb ca 26 3e 98 9e 8f 3d 0e 44 b6 3d 9b b3 96 bd
       0.16288273 0.07012671 0.08899699 -0.07358476
000090 80 88 6a 39 f2 12 72 be 6c 6b 84 be 91 18 39 3e
       0.00022366829 -0.2364004 -0.25863206 0.18075778
0000a0 d9 c2 25 3e 34 4b 50 39 b3 f8 75 3d 1f 02 47 be
       0.1618761 0.00019864441 0.06005163 -0.19434403
0000b0 c2 3e 4b be 10 c3 65 be 62 12 38 3e b8 ff 53 3e
       -0.19848159 -0.22437692 0.17975762 0.20703018
0000c0 94 ce 6c be 47 ae d0 bd fb d3 cd 3d 20 31 b7 3d
       -0.23125678 -0.10189491 0.10050198 0.08944917
0000d0 97 b3 e2 b9 a9 43 2d 3e ba e8 75 be d7 7a ff 3d
       -0.00043239884 0.16920342 -0.2401456 0.12474602
0000e0 8d 4b 57 be 6a c1 fb bd 52 68 4f 3a 7e d6 09 3e
       -0.21024914 -0.1229275 0.0007911968 0.13460729
0000f0 74 c0 84 3e dc c3 59 3e 00 bd fa bd 24 96 59 3e
       0.2592808 0.2126612 -0.1224308 0.2124868
000100 ae 2d 3f be 57 37 3a be 1c b4 0f 3e a5 68 69 3e
       -0.18669769 -0.18185173 0.1403355 0.22793825
000110 00 87 83 3b 36 88 de 3d 1a d3 60 3e 56 4f 58 be
       0.004013896 0.10865824 0.21955529 -0.21124014
000120 11 52 02 3e 4d 8e c5 bd bf 37 3e 3e 01 82 b8 3d
       0.12726618 -0.09646282 0.18575953 0.09009171
000130 5b cc c2 3d 17 cb 0e bd d3 3d 6a be 0a ae ef 3b
       0.09511634 -0.03486165 -0.22875147 0.0073144482
000140 bb 43 7f bd 40 0b 08 bd b6 93 3c be a8 2f 30 be
       -0.062320452 -0.033213854 -0.18415722 -0.1720568
000150 f1 0e fb 3d ff 82 ee 3d f7 65 07 bd 10 03 30 3e
       0.12258709 0.11646079 -0.033056226 0.17188668
000160 af 7a 5b 3e df c2 03 be 67 93 fd 3c 76 e8 65 3e
       0.21433519 -0.12867306 0.030954076 0.22451958
000170 81 e6 27 be 05 3c b0 3d 80 69 3c be 67 dd 02 3d
       -0.16396524 0.08605198 -0.1839962 0.031949427
000180 05 db 00 3c 64 58 87 3d fa 9d 6a 3e 1f 57 50 3e
       0.007864718 0.06608656 0.22911826 0.20345734
000190 49 df 05 3e fc 0d 84 bd ba 85 51 be 31 a9 57 bd
       0.13073458 -0.0644798 -0.20461169 -0.052651588
0001a0 d6 49 a2 3d 28 c2 33 3e 89 f3 20 be 9a 0b c5 bc
       0.07924239 0.17554533 -0.15717901 -0.024053384
0001b0 92 af a0 bd e4 72 11 3e d0 54 25 be a8 0a f5 3d
       -0.078459874 0.14203984 -0.16145635 0.11964923
0001c0 ff 64 37 3e e5 55 7f be b9 b9 76 be 6f 6e 7b 3d
       0.1790962 -0.2493511 -0.24094285 0.061384615
0001d0 4f 6c 75 3c eb 58 d2 bd 52 40 da bd 44 2f 4d 3e
       0.014979436 -0.10270866 -0.106567994 0.20037562
0001e0 43 13 cc bc 12 61 6d be b2 d6 8f 3d b5 27 09 3e
       -0.024911528 -0.2318156 0.07023372 0.13394053
0001f0 1d 32 fe bc 8d 80 5b be 8a cd 42 be 1e ca 8b bd
       -0.031029755 -0.21435757 -0.1902372 -0.0682566
000200 03 e8 3e be fd db d2 bd 39 e7 22 3e 31 c3 eb bd
       -0.18643193 -0.10295866 0.15908517 -0.11511839
000210 49 75 86 3e ce c8 8c bd 23 9b 69 3e 33 41 c7 3c
       0.26261356 -0.06874238 0.22813086 0.024323082
000220 18 63 7d 3d 93 eb 30 3c 4c f7 66 be 6c f7 1d 3e
       0.06186208 0.010798353 -0.22555274 0.15426415
000230 ba 6c 9f 3c ed 7e 2a 3e ac 48 38 be 8e 57 39 3e
       0.019461025 0.16649981 -0.17996472 0.18099806
000240 b6 72 a9 bd f9 77 82 3c e3 36 59 bc 4c c9 d2 bc
       -0.082738325 0.015926348 -0.013257715 -0.025730751
000250 81 0a 00 bd 1e 48 65 be 80 0b e8 bd 5b 4d 53 be
       -0.031260017 -0.22390792 -0.113303185 -0.20634978
000260 0b bc fe 3c 5c da 68 be 7e 61 06 3e 38 e1 4c 3d
       0.031095525 -0.22739547 0.13123128 0.050019473
000270 80 29 17 be 7b 4e 2f bd 7f b9 27 be 99 92 55 3e
       -0.14761925 -0.042799454 -0.16379355 0.20856704
000280 7a 9b 88 3c 2e f3 71 3e c2 5d 4a be ec 82 69 3c
       0.0166757 0.23627922 -0.19762328 0.014252406
000290 01 95 6d be a1 f8 58 be b6 f7 ef 3d 6f b1 6b 3e
       -0.23201372 -0.21188594 0.11717169 0.23016904
0002a0 3c 47 46 3e 4e 05 f6 bd f0 0a 0e 3e 1a d1 3f 3e
       0.19363111 -0.120127305 0.1387136 0.1873211
0002b0 3b 30 64 bc 77 c6 dd 3d 3f 66 a5 bd 9f e5 17 3e
       -0.013927515 0.1082887 -0.080761425 0.14833687
0002c0 c9 38 23 be 54 4d 5e be c1 2e 41 3e 70 ca 84 be
       -0.1593963 -0.21709186 0.18865491 -0.25935698
0002d0 bd 5f 55 3e a9 28 88 3d fc de 2a 3e b9 25 11 be
       0.20837303 0.0664838 0.16686624 -0.14174546
0002e0 24 04 4d 3e c1 cd 45 3e 8b 01 08 3e 5a 34 55 be
       0.20021111 0.1931677 0.13281839 -0.20820752
0002f0 81 24 84 bd 74 1a 1f be a5 76 d6 bd cd d9 1b 3e
       -0.06452275 -0.15537435 -0.104718484 0.15219803
000300 55 61 9d bd a6 b1 1c bd d8 a7 83 be 0e ca 6b 3d
       -0.0768458 -0.038255356 -0.25713992 0.05756574
000310 ef 4d 29 be 7e 46 da 3d 75 6c 00 be bb 44 52 be
       -0.16533636 0.106579766 -0.12541373 -0.20534031
000320 67 90 9f bd 40 74 3e be f1 fe 2f 3b ab 56 b7 3d
       -0.077912144 -0.18599033 0.0026854838 0.089520775
000330 6f 61 87 be 74 6b 63 3e 99 6b 3a be dd e2 83 3e
       -0.26441523 0.22208959 -0.18205108 0.2575902
000340 f7 6b 94 3c 19 4b 96 bd aa 56 f3 bd ca 2c b8 bc
       0.018117888 -0.073385425 -0.11881764 -0.022482295
000350 78 a1 fc 3d 3c 60 88 3a cc b1 cb 3d 04 c7 cf 3d
       0.12335485 0.0010404657 0.099460214 0.10145381
000360 5a 3d 04 be b5 46 79 bd dd 83 0d 3e 7f 71 32 3e
       -0.12914029 -0.060858447 0.13819833 0.17426108
000370 a6 8b 3b 3e ba 1b 12 be 32 2d 65 3c d1 0b 1e be
       0.1831499 -0.1426839 0.013987826 -0.15434195
000380 53 00 db bd 2e bb 11 3e 76 66 ec bd a6 f8 33 be
       -0.10693421 0.1423156 -0.115429804 -0.1757532
000390 9c eb 5b be a5 c2 37 be 52 39 03 be 0c 03 70 be
       -0.21476597 -0.17945345 -0.12814835 -0.23438662
0003a0 f6 82 9e bd 71 60 20 be af c8 10 3e 8d 90 7f bd
       -0.077398226 -0.1566179 0.14139055 -0.062393714
0003b0 6f a8 92 3d 83 e9 9e bd 53 4e 4d 3e 12 7c c6 bc
       0.071610324 -0.077593826 0.2004941 -0.024229083
0003c0 80 c6 54 3e ac e7 15 bc 28 9f 0f be 36 f6 c6 bd
       0.20778847 -0.009149473 -0.14025557 -0.0971493
0003d0 ae c6 f4 3d f0 24 cd bd 9b 44 e6 bd cd 76 44 3e
       0.11951958 -0.10016811 -0.11243554 0.19185944
0003e0 97 6a 5f 3e 4a 6d a9 bc 58 e7 2f bd 53 13 81 bc
       0.21818005 -0.020681996 -0.042945236 -0.015756285
0003f0 5a a0 23 be ef ae 8e 3d 32 2a 07 3e ff e5 17 3e
       -0.15979138 0.0696696 0.1319969 0.1483383

bias f4 [48]
000000 38 53 ff bd ca 6c e9 3c 93 98 a3 bd 69 5c 81 be
       -0.124670446 0.028494257 -0.079880856 -0.25265816
000010 69 4e de 3c 82 b7 f7 3d 7a 1e f9 bc 50 4a ee bb
       0.027136998 0.12095548 -0.03041004 -0.0072720423
000020 88 17 50 3e 6f 7f c0 bd cb 99 55 be e4 66 db 3c
       0.20321476 -0.09399306 -0.20859449 0.02678246
000030 4b de 23 3e 6d 5f 1e bd 59 65 32 be 30 b6 05 3d
       0.16002767 -0.038665224 -0.17421474 0.03264445
000040 3b 41 38 be 34 88 66 be ca 22 36 be 78 2a 2f be
       -0.17993633 -0.22512895 -0.17786708 -0.17106044
000050 cc 57 0c 3d 60 f2 2e be e4 ce 4e 3e a7 7c bf bd
       0.034263417 -0.17084646 0.2019611 -0.093499474
000060 f7 98 58 3e b7 6f 58 be c0 8e 59 be 1e f8 81 be
       0.21152101 -0.21136366 -0.21245861 -0.2538461
000070 7e 7f 85 3e a2 3f 2a 3e 31 5e 39 be 4e 30 0d be
       0.2607383 0.16625836 -0.18102337 -0.13787958
000080 51 9e 2e 3e 84 e8 09 3d 00 7c 2d be 97 87 03 be
       0.1705258 0.03366901 -0.16941833 -0.12844692
000090 ee 00 a9 bd 6a 1e fa 3d f6 3e 05 bd 96 81 4c be
       -0.082521304 0.12212832 -0.032530747 -0.19971308
0000a0 d7 76 00 be 72 0c 45 3e 2d 6a 22 be 20 51 97 3d
       -0.12545334 0.19243029 -0.15860815 0.0738852
0000b0 f1 25 37 bd 8d 66 e9 bd bf 66 4f 3e 49 b2 7e 3d
       -0.044713918 -0.11396513 0.20254038 0.062181745

weight f4 [16, 48]
000000 6a 06 b5 bd c2 03 19 3e a8 6b 52 bc ee 49 16 3e
       -0.08839114 0.1494284 -0.01284305 0.1467664
000010 a5 c4 d3 bd d7 6d ec 3d 93 43 8b bb 38 27 85 3d
       -0.10340241 0.11544388 -0.004249999 0.06501621
000020 5e 4b b1 bd de d7 74 3d 5d 8d 65 bd 1a 53 ad 3d
       -0.08656953 0.05977618 -0.056043018 0.08463116
000030 f8 b2 1e 3d f5 07 d0 bc 97 4c 72 bd 59 ad 05 bd
       0.038744897 -0.02539442 -0.059155073 -0.03263602
000040 c6 e0 80 3d 18 4f 49 3d c7 dc 7a bd 8e d5 8d bd
       0.06292872 0.049147695 -0.061245706 -0.06925498
000050 0a a9 b8 bd f2 7e b3 bc ff 46 1f 3e 73 c1 b0 bd
       -0.09016617 -0.021911118 0.15554427 -0.086306475
000060 c2 05 49 bd 25 42 88 bd 99 c4 9e bd 6c ab 14 3e
       -0.049077757 -0.06653241 -0.07752342 0.14518517
000070 e2 28 6f 3c 4a 41 08 3d d6 db 12 3e d9 c8 0e bc
       0.01459715 0.03326539 0.14341673 -0.008714878
000080 a3 fb aa 3d ea 63 0c 3e a4 cf 29 3d 86 d0 06 3d
       0.08348777 0.13709989 0.041457787 0.032913707
000090 4e 31 2a bd 65 ee 7c 3d 84 1b d3 bd b6 b3 d6 3d
       -0.041550927 0.06175079 -0.103079826 0.10483496
0000a0 5c ca 9e 3b 16 e4 ff 3d f1 07 b6 bc 26 bd c9 3d
       0.0048459005 0.12494676 -0.022220584 0.0985053
0000b0 7e 14 f9 bd e1 51 98 3d 14 35 a4 bd 13 99 eb 3c
       -0.12162112 0.07437492 -0.08017936 0.028759515
0000c0 23 45 a7 3d f6 66 1a bc a1 9a 0a bd b8 4d 9d 3c
       0.08167484 -0.009423962 -0.033838872 0.019202098
0000d0 e6 14 7b 3b 9e c8 b1 bc ea 58 c8 bd 41 15 6f bc
       0.0038312017 -0.021702107 -0.09782584 -0.01459247
0000e0 0e 29 4f 3d c8 4c d1 bc f6 38 6a 3d f9 57 bb bd
       0.050576262 -0.025549307 0.05718323 -0.09147639
0000f0 9f 1e 62 3d d3 b8 f1 3d b6 8c 9c bd 4d 1c af bd
       0.055204984 0.118028305 -0.07644026 -0.0855032
000100 f5 4d 9e 3c 08 59 60 bc 55 0e f7 bd 47 68 03 3e
       0.019324282 -0.013693102 -0.120632805 0.12832747
000110 ea c8 bb 3d b6 13 c3 bd 4f 36 95 bd a5 5c 20 3e
       0.09169181 -0.09525244 -0.07285749 0.15660341
000120 30 02 a8 3d ef c8 a2 3d f7 ce 97 bd c9 63 b4 3d
       0.08203542 0.07948481 -0.07412522 0.08808095
000130 fb 3c 96 bd e9 92 81 3b 0d 85 cd bd 4d 94 d6 3d
       -0.0733585 0.0039542806 -0.10035143 0.10477505
000140 5f a9 b4 bd d8 8b a9 3d 45 a8 19 bd 63 a5 87 3d
       -0.088213675 0.08278626 -0.03751399 0.06623342
000150 bf 12 41 bb b9 09 cd bd 3d 48 b3 bd 95 81 ac bd
       -0.0029460636 -0.1001162 -0.08754013 -0.08423153
000160 44 dd 47 bd 35 5b 09 3d 6b 02 69 3d 12 b7 87 3d
       -0.048795 0.033534247 0.05688707 0.06626715
000170 53 c6 41 bc 7c ce 59 3b 18 76 bd 3d e8 4d 8c bd
       -0.011827069 0.0033234647 0.0925104 -0.06850797
000180 65 d0 e3 3d d2 a7 ec ba 94 1e 12 bd 73 51 8c 3d
       0.111237325 -0.0018055385 -0.035673693 0.06851473
000190 3e f8 86 bd d8 26 1c 3e 12 89 1c 3d b1 cc 22 bc
       -0.06590317 0.15249193 0.038216658 -0.009936498
0001a0 8e a6 fe 3d 04 1e e6 3c 76 02 e3 3d c9 a4 f8 3d
       0.124341115 0.028090484 0.11084454 0.12140805
0001b0 ad 92 9c 3d 4a c5 88 bc ec 53 12 be 2d e8 e3 3d
       0.07645164 -0.016695637 -0.14289826 0.111282684
0001c0 3e 16 00 3e 48 5a bc 3d ff 48 11 bd 3a fc 86 3d
       0.12508485 0.09196907 -0.035470005 0.06591077
0001d0 8c 2a d7 bc 24 95 fa 3d 30 00 43 bd 3b 2a 5c 3d
       -0.026265405 0.122354776 -0.0476076 0.05375121
0001e0 5a b9 d3 3d f2 1c 36 bd 11 ff 2d 3d 19 1a 90 3d
       0.103380874 -0.0444612 0.04247958 0.07036228
0001f0 61 8c ba bd 67 c5 11 bd 33 df 86 bb cf 0a b9 3d
       -0.091088064 -0.03558865 -0.004115963 0.09035265
000200 98 e6 18 be be 8f a6 3d b2 1c 55 bd 61 cb 8b 3d
       -0.14931715 0.081328854 -0.05202932 0.06825901
000210 a1 9e fd bd 8e d8 b8 bd c9 ec bf bd 03 93 e6 bd
       -0.12383772 -0.090256795 -0.09371335 -0.11258509
000220 b2 81 b8 3d 1c 55 32 3d a8 e1 94 bd 6f 01 b2 bd
       0.090091124 0.043538198 -0.07269603 -0.0869168
000230 3a d3 cc bd 06 ed 01 bd 2f 3e cf bc c4 99 e2 3d
       -0.10001226 -0.031720184 -0.025298206 0.11064485
000240 96 31 d7 bb 93 94 08 3d d7 29 4c 3d 29 88 01 3e
       -0.0065671904 0.033344816 0.04984459 0.12649597
000250 1b 5a ea bd 55 99 0b 3e d1 36 c0 bd 8a 0d 04 be
       -0.114429675 0.1363271 -0.093854554 -0.1289579
000260 02 d2 db bd 57 be 0d 3e 98 95 38 3d f7 d8 64 bd
       -0.10733415 0.1384214 0.04506454 -0.055870976
000270 3b 88 a9 bd 3c 0e 93 bd 63 56 e5 bd 81 58 0c bc
       -0.08277937 -0.07180449 -0.111981176 -0.008566023
000280 3e 2a 03 be 22 c4 18 3e ed d8 69 bd 69 f6 bf 3d
       -0.12809083 0.14918569 -0.057091642 0.09373171
000290 38 ad f8 3d 35 6b ec bd 4a f6 d3 bd ee 1b f1 bd
       0.12142414 -0.115438856 -0.1034971 -0.11772905
0002a0 04 c7 39 bd 70 db 23 bc 72 21 c8 3c e9 9a fb 3d
       -0.04535581 -0.010001048 0.02443001 0.12285406
0002b0 fc 4f 0d 3e a4 be 37 3d 74 1a 02 bc 1a 11 9d 3d
       0.13800043 0.044859543 -0.007940877 0.076692775
0002c0 f7 5a 6a 3d 58 62 03 be ae 3d 1f 3e 9b 0e b6 bd
       0.057215657 -0.12830484 0.15550873 -0.088895045
0002d0 c7 76 fa bd 3a cc a3 bd 0d b3 43 bd e8 aa b5 3d
       -0.12229686 -0.079979375 -0.047778178 0.088704884
0002e0 f6 3e 6a 3d 89 5d b9 bb 32 20 6a bd 0e 36 8b 3c
       0.05718895 -0.005656902 -0.05715961 0.016993549
0002f0 42 58 6d 3b 13 02 40 3d a2 31 87 bd 32 28 f6 3d
       0.0036215936 0.046876978 -0.066012636 0.120193854
000300 7e 68 9d bd d5 8a 22 3d 7e 72 9f 3d 7a 20 f6 3d
       -0.07685946 0.03968318 0.077855095 0.12017913
000310 46 75 18 bd f0 16 8a 3d 1f 53 13 3d f2 44 07 bd
       -0.037221216 0.06742656 0.035967942 -0.033024736
000320 65 4e b1 bd fe 21 37 3d e8 18 ec 3d a8 5a 47 bd
       -0.08657531 0.04471015 0.11528188 -0.04867044
000330 01 f2 37 3d 2c 77 72 3d 4d a4 90 3d d6 78 8b 3d
       0.044908527 0.059195682 0.07062588 0.06810157
000340 c1 55 dc bd d0 e3 13 3d 44 61 b5 bd c7 e1 22 3e
       -0.10758544 0.03610593 -0.088564426 0.1590644
000350 22 f0 0e 3e f5 ea bb 3d e2 79 ed 3c 95 eb 45 3d
       0.13958791 0.09175674 0.028988782 0.04832037
000360 65 a2 e6 3c b9 73 88 bc 24 03 c5 3c b2 df d2 3d
       0.028153608 -0.016656743 0.02404935 0.10296573
000370 5e 0b a9 3d 15 b3 b1 3d 18 bd 22 bc 11 e7 42 bd
       0.08254121 0.08676735 -0.009932779 -0.047583643
000380 df 83 8c bd ac b6 2a 3d de d7 fc 3d 70 dc 3a bd
       -0.0686109 0.041678116 0.12345861 -0.04562038
000390 d9 6c 8d 3d 0a f7 d7 3d 84 62 9b bc a5 6f 21 3e
       0.06905527 0.10545166 -0.018967874 0.15765245
0003a0 36 35 15 3e c3 cd 06 3d ef e5 60 bd 2c 94 bc 3b
       0.1457108 0.032911073 -0.05490678 0.005754968
0003b0 86 4d ed bd 97 ad 52 bd e6 51 89 3d 53 29 99 3d
       -0.11587052 -0.05143508 0.06705074 0.07478585
0003c0 24 16 21 bc b8 1e f5 3d 80 b3 c8 bd 98 82 9f bd
       -0.009831939 0.1196875 -0.09799862 -0.07788581
0003d0 25 59 a5 bd e7 a7 a7 bd 2a 61 d3 bd 90 8e a7 3b
       -0.080736436 -0.08186322 -0.10321267 0.0051134303
0003e0 f8 b7 6d bd 08 93 88 bd 8a 08 d5 bd f7 ac fd bd
       -0.058036774 -0.06668669 -0.10402019 -0.12386506
0003f0 a8 fb a8 3d e4 a1 cf 3d f6 ec f9 3d f0 12 e6 bd
       0.082511246 0.101383 0.122034 -0.11234081

bias f4 [16]
000000 79 b2 23 bd 76 ac e5 bc 78 47 43 3d fb ea b4 3d
       -0.039965127 -0.028036337 0.04767558 0.088338815
000010 c9 18 ef bd f3 f0 75 bc a8 4c 8c bd b0 4c be bd
       -0.11674649 -0.01501106 -0.068505585 -0.09291971
000020 0f 6d 4a bd 3a 81 45 3c 15 82 96 bc 73 f5 81 3c
       -0.049420413 0.012054736 -0.018372575 0.01586411
000030 1c bf 64 3c 9d 8c 0e 3e 47 a9 35 bd 22 83 fe 3d
       0.01396158 0.13920827 -0.04435089 0.12427355
