models/MATBENCH/MEGNET/src/sae/model.node_encoder.layers.3.pkl (torch, 10224 bytes, 4 tensors)

weight f4 [48, 16]
0.015306848 -0.041732732 0.049560685 -0.10580398 0.24794486 0.058917295 0.2326812 0.16389543
-0.21138431 -0.08208805 0.24826466 -0.2419211 -0.09431014 0.11318697 0.0873747 0.19217621
-0.071456835 0.04055275 0.17672406 0.13890538 0.07292176 -0.14410433 0.05252034 0.13128951
0.15466754 0.054183125 -0.051562298 0.26118597 0.1458209 0.22723283 0.0544314 0.14811566
-0.0974045 0.21170081 -0.057391834 -0.21005356 -0.25902176 -0.13483575 0.122795016 -0.077769615
0.113979846 -0.21128912 -0.0837062 0.2596573 -0.05800259 0.14543846 0.11620475 0.16152313
-0.19187686 -0.026950767 -0.22519732 0.07125018 -0.23822872 -0.20019099 0.15947069 0.12913449
0.17943212 -0.04085521 0.22418846 0.2579476 -0.17174537 -0.12221988 0.21496299 -0.05677282
-0.17209241 -0.1209898 0.07027967 0.041926075 -0.020364868 -0.15216316 -0.20898789 -0.17544934
0.1547289 0.035517763 0.18208002 0.18021378 -0.03186949 0.046091262 0.037183017 -0.039753024
0.14558217 -0.079259366 -0.0722487 -0.17945442 -0.053669848 0.11296902 0.07199018 -0.15768765
0.03527184 -0.17768678 0.22497317 0.2593057 0.09934482 -0.22428845 0.21184492 0.095174596
-0.14765166 -0.03462188 -0.22451243 0.10219527 -0.026111808 0.1306784 0.2442152 0.1744054
-0.18006937 0.11145782 -0.23663267 -0.21025488 0.14091697 0.055419005 -0.16496761 0.036905847
-0.13469331 -0.23226471 0.12013712 0.18945295 0.2370694 -0.06394636 0.19237597 -0.11842893
-0.19692637 -0.17157012 0.072353065 -0.23645121 -0.07920188 0.052199215 0.09833355 0.038232245
-0.08185435 -0.06850587 -0.0389432 -0.13810283 0.21925756 0.007251021 0.20660128 0.16716537
-0.022234354 0.084217586 -0.12023795 -0.0034328513 0.16077398 0.21389392 0.10339907 0.1110898
0.24561693 -0.102298036 0.07729539 0.123489246 -0.031493198 0.15791687 -0.09625273 -0.094050705
-0.088931225 -0.10809105 -0.11057171 -0.15071715 0.1443173 0.19452849 -0.0980745 -0.1337117
-0.16152132 -0.049648408 -0.16369314 -0.17110556 -0.13591473 0.12127815 -0.18469207 0.10267393
-0.08349094 0.250622 -0.08553053 0.07831301 0.21409851 -0.2626389 0.07226951 -0.12967376
-0.035591304 -0.03398542 0.22352253 -0.19327618 0.17848396 -0.052645475 -0.12287952 0.075839445
0.20678608 -0.17144503 -0.112968326 -0.09978283 0.2146537 -0.26456243 0.018290695 0.22761574
0.1454659 0.093559824 -0.022235677 0.18434581 0.20414907 0.19551407 -0.09529983 0.043976583
-0.06662665 -0.25448692 0.21272576 -0.14582722 -0.18778169 -0.1452727 0.16883712 -0.26555866
-0.074417904 -0.12237218 -0.021435615 0.1341544 -0.18292233 0.1890106 0.16019918 0.103020236
0.041523058 -0.024839044 -0.18008669 -0.049197234 -0.1341211 0.098855615 -0.06659982 -0.1976001
0.10411358 0.112459436 -0.18087293 0.17560469 0.2145232 -0.24228607 -0.06269982 -0.054479506
0.141472 0.14077972 0.18031622 0.0911894 0.23447175 -0.17254591 -0.08306121 -0.16859075
-0.09020085 0.078602634 0.21512483 0.20169342 -0.07126953 -0.22134 -0.033607896 -0.13913849
0.11697388 0.07070715 0.16342856 0.12246585 -0.11547666 -0.015509986 0.1883634 -0.25618792
00000000: 93c9 7a3c f1ef 2abd 2500 4b3d c2af d8bd
00000010: 42e5 7d3e 4353 713d fb43 6e3e 34d4 273e
00000020: 2175 58be c81d a8bd 1739 7e3e 2aba 77be
00000030: ad25 c1bd 92ce e73d 82f1 b23d d7c9 443e
00000040: f657 92bd a41a 263d 27f7 343e 363d 0e3e
00000050: 0158 953d 1690 13be 911f 573d c270 063e
00000060: 2b61 1e3e 20ef 5d3d fd32 53bd 2bba 853e
00000070: 1352 153e b9af 683e 76f3 5e3d a2ab 173e
00000080: 037c c7bd 19c8 583e b313 6bbd 4818 57be
00000090: 809e 84be 6212 0abe f47b fb3d ad45 9fbd
000000a0: 446e e93d 2d5c 58be 286e abbd cdf1 843e
000000b0: 2094 6dbd d2ed 143e c2fc ed3d 5266 253e
000000c0: 5e7b 44be dbc7 dcbc 209a 66be 9deb 913d
000000d0: 3bf2 73be defe 4cbe 494c 233e d53b 043e
000000e0: 0ebd 373e cb57 27bd a991 653e b511 843e
000000f0: 05de 2fbe 6b4e fabd 421f 5c3e 9e8a 68bd
00000100: fe38 30be 80c9 f7bd caee 8f3d adba 2b3d
00000110: 39d4 a6bc a9d0 1bbe ec00 56be fea8 33be
00000120: 4171 1e3e 137b 113d 2f73 3a3e f689 383e
00000130: 9589 02bd 31ca 3c3d 384d 183d 11d4 22bd
00000140: 7e13 153e bc52 a2bd 20f7 93bd e6c2 37be
00000150: ead4 5bbd 4d5c e73d 966f 933d df78 21be
00000160: 3479 103d 86f3 35be 5e5f 663e b7c3 843e
00000170: 4c75 cb3d dfab 65be e0ed 583e e6ea c23d
00000180: ff31 17be accf 0dbd 96e6 65be c14b d13d
00000190: 6ee8 d5bc 8fd0 053e 8d13 7a3e 5497 323e
000001a0: 1b64 38be ff43 e43d d64f 72be 0e4d 57be
000001b0: 8a4c 103e 0aff 623d 45ed 28be 962a 173d
000001c0: 0bed 09be cdd6 6dbe 730a f63d f4ff 413e
000001d0: 52c2 723e 4ff6 82bd 35fe 443e de8a f2bd
000001e0: 11a7 49be 14b0 2fbe d82d 943d 4420 72be
000001f0: 9834 a2bd d8ce 553d 1a63 c93d 6a99 1c3d
00000200: 41a3 a7bd ce4c 8cbd e882 1fbd d46a 0dbe
00000210: 0e85 603e f999 ed3b 498f 533e 662d 2b3e
00000220: d224 b6bc 457a ac3d 503f f6bd b0f9 60bb
00000230: efa1 243e 0207 5b3e e4c2 d33d 0d83 e33d
00000240: 0183 7b3e a281 d1bd 0c4d 9e3d eee7 fc3d
00000250: 03ff 00bd f6b4 213e 2720 c5bd a89d c0bd
00000260: 9321 b6bd d75e ddbd 6c73 e2bd 9955 1abe
00000270: eac7 133e 7a32 473e 49db c8bd b8eb 08be
00000280: d865 25be 215c 4bbd 2d9f 27be 4c36 2fbe
00000290: 3b2d 0bbe ae60 f83d eb1f 3dbe b646 d23d
000002a0: 4cfd aabd 8751 803e a12a afbd 9262 a03d
000002b0: a43c 5b3e 9b78 86be 0902 943d 33c9 04be
000002c0: 30c8 11bd 4c34 0bbd 17e3 643e 31ea 45be
000002d0: 80c4 363e c8a2 57bd 42a8 fbbd b651 9b3d
000002e0: bbbf 533e 498f 2fbe f05b e7bd f15a ccbd
000002f0: 2ece 5b3e ba74 87be 5ed6 953c 1a14 693e
00000300: 03f5 143e 4b9c bf3d 9827 b6bc 26c5 3c3e
00000310: 740c 513e d734 483e 8f2c c3bd ca20 343d
00000320: 8e73 88bd 1c4c 82be c8d4 593e bb53 15be
00000330: d849 40be 5ec2 14be a3e3 2c3e 4ef7 87be
00000340: 6a68 98bd 449e fabd be99 afbc c55f 093e
00000350: fe4f 3bbe ff8b 413e 410b 243e 46fc d23d
00000360: 1514 2a3d 407b cbbc a568 38be 0a83 49bd
00000370: 0b57 09be d074 ca3d 7d65 88bd ae57 4abe
00000380: 8039 d53d 2251 e63d c136 39be b7d1 333e
00000390: f8ab 5b3e d719 78be c368 80bd e725 5fbd
000003a0: 09de 103e 8f28 103e d1a4 383e 82c1 ba3d
000003b0: 5d19 703e e0af 30be ff1b aabd 0ea3 2cbe
000003c0: 39bb b8bd 6bfa a03d af49 5c3e b888 4e3e
000003d0: c2f5 91bd f4a6 62be 6fa8 09bd 527a 0ebe
000003e0: 0090 ef3d e9ce 903d d159 273e 60cf fa3d
000003f0: 077f ecbd 991d 7ebc 56e2 403e 102b 83be

bias f4 [48]
0.10461973 0.20298454 -0.25325477 -0.22017434 0.09272341 -0.26494625 -0.016219908 0.08425436
0.054434244 0.18974143 0.13403359 -0.21036543 -0.08827094 -0.10649934 0.1260335 0.23292616
-0.059537884 0.22811992 0.03745818 -0.108748324 -0.17295079 0.064434536 -0.037581094 -0.14426814
-0.2334296 -0.11017014 0.1108922 -0.2552462 -0.24668236 -0.018231677 0.16950375 -0.24931084
-0.04861951 0.11838255 -0.13771422 -0.0367095 -0.061641563 0.14533271 0.20623809 -0.1702611
0.1314922 0.18700254 0.15990601 -0.21999177 -0.0338916 0.15033495 0.15439387 0.118684754
00000000: de42 d63d 2edb 4f3e 9caa 81be 6275 61be
00000010: c5e5 bd3d 09a7 87be 9ddf 84bc 8d8d ac3d
00000020: 71f6 5e3d 944b 423e 1a40 093e 096a 57be
00000030: 65c7 b4bd 531c dabd ed0e 013e 3284 6e3e
00000040: ffdd 73bd 4598 693e c06d 193d 71b7 debd
00000050: 031a 31be 41f6 833d a2ee 19bd 07bb 13be
00000060: 2b08 6fbe e2a0 e1bd 731b e33d a1af 82be
00000070: 4d9a 7cbe 995a 95bc 6492 2d3e 574b 7fbe
00000080: 4025 47bd 8d72 f23d f504 0dbe b35c 16bd
00000090: dd7b 7cbd 19d2 143e 1430 533e ed58 2ebe
000000a0: e4a5 063e 987d 3f3e 67be 233e 8645 61be
000000b0: ebd1 0abd 68f1 193e 6d19 1e3e fe10 f33d

weight f4 [16, 48]
0.10795741 0.043090176 -0.010765106 0.12697229 0.010229055 -0.018921643 -0.043263152 0.0030159284
-0.009583686 0.119319715 0.08894836 -0.071524486 0.11949708 0.10814255 -0.064494304 -0.10407272
0.117121674 -0.12376244 0.10872554 -0.0874987 0.11351658 0.07114351 -0.042506523 -0.1296583
0.021422675 0.063328326 -0.032149952 -0.05015072 -0.06631338 -0.098093905 -0.12948191 -0.07534231
-0.0975753 0.10394148 -0.13287212 0.09084671 0.07864075 -0.03983312 0.02860441 0.049129523
-0.12229914 0.042570002 0.034676872 0.011902964 0.03666876 -0.0029918882 -0.09607804 0.10310267
0.016947655 0.06458192 0.069540806 0.06861899 -0.0070575913 -0.14528081 0.016482372 -0.08769238
0.04574151 -0.053048816 0.01049713 0.083936885 0.022584803 -0.111548014 0.034940742 0.071333684
-0.044710156 -0.1305703 -0.09934284 0.12941329 -0.04122586 -0.004488791 -0.10041367 0.011682522
-0.02543629 -0.0046404935 -0.058048844 0.08492769 -0.022514185 0.073459275 -0.020994322 -0.11693325
-0.056853034 -0.12691946 0.036644094 -0.043989822 -0.15497535 0.030617345 -0.057989072 -0.05124381
-0.06326669 -0.07374237 -0.043372974 -0.012018428 -0.04098398 0.011684981 0.02733404 0.091775164
0.04393736 0.006007359 0.118142046 0.06418595 -0.094464324 -0.08127529 -0.1292453 -0.04315309
0.119977646 0.086727336 -0.057399273 0.029976033 0.019993646 -0.14959104 0.00754587 0.008387509
0.015823413 -0.024429893 0.0036036242 -0.054470435 0.023099702 0.09156958 0.08086996 -0.14701067
-0.10921168 -0.026949892 0.09585616 -0.093512416 0.073810585 0.0053257663 0.071775965 0.035981867
-0.015758388 -0.15150861 -0.1034027 0.005579445 0.12851416 -0.12018044 -0.06798596 -0.1330091
0.11655922 -0.02582675 -0.0026166392 -0.039572764 -0.08249244 0.118387565 0.06667049 -0.09453811
-0.034945365 0.092593975 0.05287232 -0.1356877 0.03895572 0.1100624 0.09576067 -0.093892895
0.07519797 -0.15452273 -0.097153045 -0.08507783 -0.043056354 -0.11808598 -0.14380012 -0.11015034
0.1034976 0.107909985 -0.08302028 0.020760806 -0.06554513 0.012225888 -0.06488715 0.06976368
0.094657846 0.11230599 0.111715965 0.116980866 -0.12571615 -0.04284134 0.01088202 -0.09077889
-0.033469263 0.04934825 0.1149341 -0.0046482375 -0.099411294 0.09679592 -0.020587843 -0.036638066
0.009240565 -0.012909815 0.018562857 -0.033673264 0.0039849305 -0.05499567 -0.14591451 0.0650367
0.15514779 0.0033711009 0.15172224 -0.12691832 -0.12165075 -0.085183404 -0.083954714 0.12260493
0.11424766 0.039464112 -0.012855988 0.010998061 0.07474389 0.0039682384 -0.05068314 -0.012723758
-0.020385886 -0.08826403 0.15756612 0.00044635677 -0.048622034 -0.07334237 0.09314723 0.10967805
-0.09742714 -0.051440027 0.07724429 0.13694389 -0.068112984 0.018229375 -0.12807702 -0.05586611
0.010676608 -0.11695077 -0.085073866 -0.03693687 0.06232023 0.13720304 0.15957189 -0.047583267
-0.02968687 -0.004819125 -0.0046431273 0.011487055 -0.0143863605 0.14034875 -0.1207591 0.10874641
0.100445464 -0.058603574 -0.005937046 0.14473146 -0.056174405 0.08420377 0.0522269 -0.026008124
-0.11776484 0.022290308 0.11813837 -0.07083113 -0.014324275 0.03295563 -0.098729365 -0.05631563
00000000: c618 dd3d 537f 303d 2160 30bc 0605 023e
00000010: c497 273c 9001 9bbc b434 31bd e2a6 453b
00000020: e404 1dbc e55d f43d 8f2a b63d 6e7b 92bd
00000030: e3ba f43d d779 dd3d 9715 84bd 1424 d5bd
00000040: 7ddd ef3d 2a77 fdbd 7fab de3d 8532 b3bd
00000050: 617b e83d b0b3 913d 521b 2ebd 25c5 04be
00000060: 9b7e af3c 48b2 813d abaf 03bd d76a 4dbd
00000070: 4fcf 87bd 75e5 c8bd e896 04be 124d 9abd
00000080: 8fd5 c7bd 45df d43d a10f 08be d70d ba3d
00000090: 670e a13d 0e28 23bd cc53 ea3c 0a3c 493d
000000a0: f977 fabd e25d 2e3d 5609 0e3d a604 433c
000000b0: fb31 163d 8e13 44bb 90c4 c4bd 7e27 d33d
000000c0: cfd5 8a3c 8743 843d 696b 8e3d 1d88 8c3d
000000d0: 5e43 e7bb 7ec4 14be 0a06 873c 1098 b3bd
000000e0: 735b 3b3d b749 59bd 28fc 2b3c 1ae7 ab3d
000000f0: c403 b93c 4973 e4bd 061e 0f3d 6517 923d
00000100: ff21 37bd 39b4 05be 4274 cbbd eb84 043e
00000110: 73dc 28bd b516 93bb afa5 cdbd 0c68 3f3c
00000120: c45f d0bc 480f 98bb a0c4 6dbd 92ee ad3d
00000130: ab6f b8bc d171 963d 49fc abbc b37a efbd
00000140: bade 68bd 2df7 01be 1e18 163d ac2e 34bd
00000150: dcb1 1ebe 3ad1 fa3c f385 6dbd 08e5 51bd
00000160: f791 81bd 3d06 97bd dca7 31bd f1e8 44bc
00000170: d1de 27bd 5d72 3f3c a3eb df3c 9ef4 bb3d
00000180: a9f7 333d 61d9 c43b 75f4 f13d ec73 833d
00000190: 8376 c1bd a973 a6bd e158 04be 4bc1 30bd
000001a0: d7b6 f53d 1a9e b13d 801b 6bbd 4c90 f53c
000001b0: b7c9 a33c 652e 19be 5843 f73b c36b 093c
000001c0: 1aa0 813c 3321 c8bc c82a 6c3b 641c 5fbd
000001d0: 963b bd3c d588 bb3d 269f a53d f789 16be
000001e0: 60aa dfbd 05c6 dcbc 3c50 c43d 7083 bfbd
000001f0: 012a 973d c483 ae3b 47ff 923d b961 133d
00000200: bc17 81bc 1325 1bbe cbc4 d3bd c7d3 b63b
00000210: 3799 033e 2a21 f6bd 393c 8bbd 8a33 08be
00000220: 9ab6 ee3d 9f92 d3bc ec7b 2bbb 0d17 22bd
00000230: ccf1 a8bd 2e75 f23d 8a8a 883d 329d c1bd
00000240: df22 0fbd e9a1 bd3d a590 583d b7f1 0abe
00000250: 0890 1f3d 6568 e13d 2c1e c43d eb4a c0bd
00000260: 6501 9a3d 353b 1ebe 2df8 c6bd 493d aebd
00000270: dc5b 30bd 10d7 f1bd 5740 13be 8096 e1bd
00000280: 8df6 d33d e9ff dc3d 8906 aabd 9112 aa3c
00000290: 863c 86bd 174f 483c 8ee3 84bd 43e0 8e3d
000002a0: f9db c13d af00 e63d 57cb e43d aa93 ef3d
000002b0: bcbb 00be 677a 2fbd 804a 323c 48ea b9bd
000002c0: 1117 09bd 6421 4a3d 9262 eb3d 3e50 98bb
000002d0: 2698 cbbd f03c c63d d6a7 a8bc cc11 16bd
000002e0: bd65 173c b083 53bc 2211 983c faec 09bd
000002f0: 0594 823b 2443 61bd 9d6a 15be f631 853d
00000300: 10df 1e3e b0ed 5c3b 135d 1b3e e0f6 01be
00000310: 0724 f9bd a374 aebd 73f0 abbd 4b18 fb3d
00000320: adfa e93d 1fa5 213d eca1 52bc 3631 343c
00000330: 5313 993d ff07 823b 2099 4fbd 4f77 50bc
00000340: 4d00 a7bc c6c3 b4bd 0359 213e fe04 ea39
00000350: e627 47bd 8634 96bd fac3 be3d e39e e03d
00000360: e187 c7bd c7b2 52bd 4132 9e3d 053b 0c3e
00000370: d27e 8bbd c555 953c 9f26 03be ddd3 64bd
00000380: f1ec 2e3c e383 efbd 353b aebd 1e4b 17bd
00000390: 7f43 7f3d f47e 0c3e d066 233e ace6 42bd
000003a0: e131 f3bc c0e9 9dbb 6025 98bb 3334 3c3c
000003b0: c5b4 6bbc 95b7 0f3e 8c50 f7bd 70b6 de3d
000003c0: 5ab6 cd3d 4d0a 70bd 8d8b c2bb 7c34 143e
000003d0: 2217 66bd 0773 ac3d e0eb 553d fd0e d5bc
000003e0: b12e f1bd 2a9a b63c 88f2 f13d e90f 91bd
000003f0: 5db0 6abc 7cfc 063d 9f32 cabd 38ab 66bd

bias f4 [16]
-0.11062788 -0.121392414 -0.09849093 0.019240096 -0.108935334 -0.1052214 -0.12889817 -0.05328661
-0.13925532 0.121222466 -0.07487704 -0.015795043 0.09568592 0.013328634 -0.07734216 0.12554154
00000000: df90 e2bd 969c f8bd 9db5 c9bd 689d 9d3c
00000010: 7d19 dfbd 517e d7bd e2fd 03be 0f43 5abd
00000020: f298 0ebe 7c43 f83d 2259 99bd 9b64 81bc
00000030: fbf6 c33d 5860 5a3c 9165 9ebd f68d 003e
