models/MATBENCH/MEGNET/src/sae/model.blocks.1.edge_func.pkl (torch, 28888 bytes, 4 tensors)

weight f4 [96, 32]
000000 63 73 2c 3d 90 9d 12 bd 8e ed 2b 3e 0e 42 4f bc
       0.04210223 -0.035794795 0.16789839 -0.012650026
000010 65 fc 19 3e 73 b0 04 bc 90 b0 0b be 39 08 91 3c
       0.15037687 -0.008098709 -0.13641572 0.017704116
000020 cb 55 90 3d ac 13 11 be 48 da 94 ba cf 70 4d 3c
       0.07047614 -0.1416766 -0.0011356557 0.012539103
000030 31 1c 25 3e 65 f9 ac 3c 65 55 3d bd 92 80 94 3c
       0.16124035 0.021115014 -0.046224017 0.018127713
000040 12 73 a7 3c 42 b0 6e bd 55 f0 b2 bd c0 0f 9e bd
       0.020440612 -0.05827356 -0.08737246 -0.07717848
000050 ad 56 1e be bb ad 16 3e be 38 12 be 87 7c 34 3c
       -0.15462752 0.1471471 -0.14279458 0.011016018
000060 b0 e5 7c 3d 82 cd 0e be ac 0a 86 bc d0 cc 19 3e
       0.061742485 -0.13945583 -0.01636251 0.15019536
000070 95 c8 2e 3d ec 36 21 bd 2b 9e 3c 3e d4 9c 1e 3d
       0.04267176 -0.03935902 0.18419711 0.03872378
000080 d9 25 1a be d8 27 13 3e 11 98 2b be d1 90 4c 3d
       -0.150535 0.14370668 -0.16757227 0.049942795
000090 73 5b 2a 3e dc 14 b4 bd 9b ac 01 bd 5c 41 fa 3d
       0.16636448 -0.08793041 -0.03165875 0.122194976
0000a0 e0 b6 0c 3e ec b3 98 ba 6c a1 e3 3d a3 43 c2 3c
       0.13741636 -0.0011650301 0.11114773 0.023713892
0000b0 1a c2 7f bd e5 6e 38 bd 76 41 d3 3d 71 f4 e9 3d
       -0.06244097 -0.045027632 0.1031522 0.114235766
0000c0 52 f1 c2 bc cd 05 81 bd 13 74 04 3e 19 1d 06 be
       -0.023796711 -0.062999345 0.12934904 -0.13097037
0000d0 20 e8 77 3d 0a 3b 0c be 47 b1 42 3e b1 c9 cc bd
       0.060524106 -0.13694397 0.19012938 -0.09999407
0000e0 60 22 41 3c a8 68 f2 3c 58 e0 1d bc df e5 24 3e
       0.011787981 0.02959092 -0.009636007 0.16103314
0000f0 14 3d c1 3b 8b 10 66 3d 53 32 16 be 33 ff 91 bd
       0.0058971737 0.05616812 -0.14667635 -0.071287535
000100 7c 61 c7 3c cf d8 59 3d 73 4f f6 3d 74 bb 34 bd
       0.024338476 0.05318528 0.120268725 -0.04412408
000110 82 7e 00 be 09 d8 b8 3d 28 7e 71 bd 49 ca f3 bd
       -0.12548259 0.090255804 -0.058958203 -0.11903817
000120 31 d6 19 3e d6 c6 3a be a9 f1 bb 3d ee 92 7c bd
       0.15023114 -0.18239912 0.091769524 -0.06166356
000130 1f 6b 20 be ce d6 bc bd 9f 65 12 be 66 6a 1f 3d
       -0.15665863 -0.09220658 -0.14296578 0.03891983
000140 0d 53 91 bd a2 62 f4 3d ac a4 cb bc 77 c0 6f 3c
       -0.07095919 0.11932875 -0.024858795 0.01463329
000150 c9 18 9c 3d a3 e7 d4 bc 58 7c 09 be dd 44 d8 bd
       0.07621915 -0.02598936 -0.1342634 -0.1056001
000160 8a 38 1d 3d 93 b2 e9 bd 2a b8 2e 3e a9 5d 51 bc
       0.038383998 -0.114110135 0.1706244 -0.012778678
000170 fa b6 f0 bd 6e 76 3f 3c 02 d4 1f 3e 62 cd 5d 3c
       -0.1175365 0.011685951 0.15608218 0.013537737
000180 af 26 0a 3d 24 13 c6 3d a4 3c ac bd c9 33 99 bc
       0.033728298 0.096716195 -0.08410004 -0.01870145
000190 ca f6 33 be 43 1d d2 bb 74 8a 77 3d 35 f6 21 be
       -0.17574611 -0.0064121797 0.060434774 -0.15816577
0001a0 03 cf 7f 3d 8f ca 51 bd e2 b3 14 bd 6f da 51 bd
       0.06245328 -0.051218566 -0.036304362 -0.051233705
0001b0 bd d2 2c 3e a7 9f b5 bd e8 0e ee bd 16 cc 02 be
       0.16877265 -0.08868342 -0.11623937 -0.12773165
0001c0 e4 38 38 bd 0d 4b 5b 3d 66 54 56 bd cb d4 c7 3d
       -0.04497613 0.05353837 -0.052326582 0.09757384
0001d0 b5 9a 04 3d 10 4f a7 3d 02 8b be 3d 7a b6 5a bd
       0.032374103 0.08169377 0.093038574 -0.05339668
0001e0 e3 f6 e6 3d 0b 65 59 3d 3d f3 09 be 42 03 fb bd
       0.11277559 0.053074878 -0.13471694 -0.12256481
0001f0 ae 09 17 bd 1c 54 8e 3d 87 f1 67 bd e9 3f 22 3e
       -0.036874466 0.06949636 -0.056626823 0.15844692
000200 ef be 8f 3d 00 95 21 3e cf 8b 78 3d ae 9c 2c 3e
       0.070188396 0.15779495 0.060680207 0.16856644
000210 d2 8e db bd f6 cc 2c be 51 e1 e0 bd 85 8e 21 3d
       -0.107206 -0.16875061 -0.10980476 0.039442558
000220 f4 31 23 be 87 f6 ec bd dd d3 15 be b3 a2 ea 3d
       -0.15937024 -0.11570459 -0.146316 0.11456814
000230 88 1a eb bd 7f cf 29 3e 95 72 1c be 80 80 d2 bc
       -0.1147967 0.1658306 -0.15278085 -0.02569604
000240 7b 14 27 be e0 3e c3 bd c9 33 24 be ca 50 2d 3d
       -0.16316406 -0.09533477 -0.1603538 0.042313375
000250 86 e1 18 3e d5 d5 0b be eb aa 23 3e 0c df 24 bd
       0.1492978 -0.13655789 0.15983169 -0.040251777
000260 26 b2 10 3e c8 27 3d 3d 5e 7f 14 bc 08 bc 24 3d
       0.14130458 0.046180516 -0.00906357 0.040218383
000270 b4 d0 89 bc d7 77 98 3d c7 d0 ed bc 01 ad 68 3d
       -0.01682315 0.07444733 -0.029030217 0.056805614
000280 a3 f5 50 bd 17 9e 0d 3e fd 80 ac bd f5 7b 6e 3d
       -0.051015507 0.13829838 -0.0842304 0.058223683
000290 61 ae 53 bd 23 e6 95 bb 72 81 2a bd 0c e5 33 3e
       -0.051679973 -0.0045745536 -0.041627355 0.17567843
0002a0 10 a0 f2 bc e4 1c 5c bd da aa e1 bd e9 f2 a9 3c
       -0.02961734 -0.05373849 -0.110189155 0.020745711
0002b0 88 0e c6 3d 6c fb 81 3d 37 4c 06 be a6 28 f4 3d
       0.0967074 0.06346783 -0.13115011 0.119218156
0002c0 8c 24 98 bb 32 60 5d 3d 45 c4 aa 3c 92 27 7c 3d
       -0.0046430286 0.054046817 0.020845542 0.061561175
0002d0 98 8f f1 bb 1d 78 3e 3e 55 f3 98 3b 50 0e 34 be
       -0.007371854 0.18600507 0.0046676793 -0.17583585
0002e0 e4 be 7a bd de ac 2c be 6e 56 fd 3d 66 a0 0f be
       -0.061217204 -0.16862819 0.12370001 -0.14026031
0002f0 3a 5e 16 3c 74 9c 83 bc d0 9f ca bc 2c a8 01 3e
       0.009177739 -0.016065814 -0.024734408 0.12661809
000300 d3 9a 2b 3e d0 2d 35 3e 7d 44 ac 3d 0a 24 9a 3c
       0.1675828 0.17693257 0.084115006 0.018816013
000310 0b da 09 be 4b 63 3b 3e 8f dc 2d 3e 4d c6 dd 3d
       -0.13462083 0.18299596 0.16978668 0.108288385
000320 2f 83 f0 bd 7b c6 40 3d b4 ac 6a bd 32 39 fe bd
       -0.11743771 0.047064286 -0.05729361 -0.12413253
000330 75 60 4e 3c 45 80 3b 3d ff fc 8d 3a ba 1d 27 be
       0.012596239 0.045776624 0.0010832845 -0.16319934
000340 39 74 84 3d 8c 43 a7 3d af 54 22 3e 46 0d df bd
       0.0646748 0.081671804 0.15852617 -0.108912036
000350 9c 23 fa bc 65 cb 94 bd 1f 66 15 bd f5 56 13 3e
       -0.030534558 -0.07265357 -0.036474343 0.1438864
000360 02 90 02 3e b9 b8 f9 3d 41 aa bf bd 3c ea 17 3c
       0.12750247 0.12193436 -0.09358645 0.009272154
000370 06 57 e4 3d 5e 19 81 3b b4 bb dd bd 10 56 23 bc
       0.11149411 0.0039397916 -0.10826817 -0.009969249
000380 ca 77 5d 3b 86 33 08 3e 57 6c 4a 3c 05 67 23 be
       0.0033793324 0.13300905 0.012354932 -0.15957268
000390 f5 fd 78 bd 49 32 f1 3d 8f d3 11 be 31 37 1b be
       -0.060789067 0.11777169 -0.1424086 -0.15157773
0003a0 98 09 a5 bd 59 75 88 bc 14 c8 a8 bd 9a 44 6a bd
       -0.080584705 -0.016657518 -0.08241287 -0.05719433
0003b0 15 fa f2 ba 96 69 f3 bd 49 10 a1 3d 05 9c 21 3e
       -0.0018537665 -0.11885373 0.07864434 0.15782173
0003c0 ba c9 15 3e ee 32 03 3d eb b0 14 be 5a b1 24 3e
       0.14627734 0.032030992 -0.14520614 0.16083279
0003d0 04 ab da 3d 4e b7 dd bd 13 1e 1f bd 7f 65 2c 3e
       0.1067715 -0.10825978 -0.03884704 0.16835593
0003e0 47 91 6e 3d 89 dd da 3d 96 46 06 3e 7a 96 1f be
       0.058244016 0.10686786 0.13112864 -0.15584746
0003f0 4e 79 12 be 15 9a 91 3d e9 69 20 3e c2 e4 80 3d
       -0.14304087 0.07109467 0.15665402 0.06293632

bias f4 [96]
000000 70 1d a0 bd 82 8f ba 3d 1e c6 8f 3d 5c f6 0e 3e
       -0.07818115 0.09109403 0.0702021 0.13961166
000010 ed ce a3 3d 1c 5c 2c be 8e 42 1d 3e 46 3d 84 3d
       0.07998452 -0.16832012 0.1535742 0.064569995
000020 a9 73 5a 3d 78 5f d3 bd 02 5f cd 3d b1 b5 1c be
       0.05333296 -0.103209436 0.10027887 -0.15303685
000030 7c 95 c9 bd c5 99 21 bd 08 28 9d bc ec 96 16 3e
       -0.09842965 -0.039453287 -0.019184127 0.1470601
000040 f8 06 04 bc f5 8e da 3d b0 ef d0 3d ad 93 25 be
       -0.008058302 0.10671798 0.10201967 -0.16169615
000050 2d 8a 1e be 4b 8a 05 be 8c bc 0c be 06 83 10 3e
       -0.15482397 -0.13041036 -0.137438 0.14112481
000060 11 47 1a 3e 66 39 a8 bd 84 02 68 3d 30 c3 32 bd
       0.15066172 -0.08214073 0.056643024 -0.043643177
000070 6b ce 21 bd a4 4d 5d bc d3 9a b9 bc 0f 8a c0 bc
       -0.039503496 -0.0135072805 -0.022656834 -0.023503331
000080 07 3e 05 be 60 2f 17 3e 76 0f fb bd e5 0f 4a bd
       -0.13011943 0.14764166 -0.12258808 -0.049331564
000090 c4 7f 0d be c9 04 50 bd 75 a2 31 be 01 74 cf bd
       -0.1381827 -0.050785813 -0.17347129 -0.10129548
0000a0 f6 43 1e be 93 44 06 bd 7a 33 e7 bd b2 7e 33 be
       -0.15455613 -0.03278024 -0.11289115 -0.17528799
0000b0 d9 2b 68 3d 64 84 b1 3d 71 8e fe 3d 38 cc ae bd
       0.05668244 0.0866783 0.12429512 -0.085350454
0000c0 a0 95 09 bd c5 00 82 bd 16 42 fb 3d a0 a9 71 bc
       -0.03358996 -0.06347803 0.12268464 -0.014749914
0000d0 b2 ba 1e be 84 2f 16 bd 63 ee d0 bd d2 f6 fd 3b
       -0.15500906 -0.03666641 -0.10201719 0.0077503705
0000e0 55 9d a1 bd 55 56 39 3e 26 29 e2 3d 27 7e f6 bc
       -0.07891337 0.1809934 0.11043005 -0.030089451
0000f0 64 96 a2 3d fa 56 8a bd d5 30 21 3c 07 f9 91 3d
       0.07938841 -0.06754871 0.009838303 0.07127576
000100 b5 39 8f bc 0d a2 40 3d b9 bb b1 3d 40 cd 1d be
       -0.017483572 0.047029544 0.086783834 -0.15410328
000110 20 3b 10 bc b3 92 b5 3c 5e 0b 92 bc 4d 86 f6 3d
       -0.008803159 0.022164678 -0.017827686 0.120373346
000120 d8 91 f9 3b 1c 62 41 be e7 f9 e3 bd ed 79 23 3e
       0.007616263 -0.18885082 -0.111316495 0.1596448
000130 1c cc 0b 3d 25 f3 3b bc fa 77 29 be d1 a1 dd 3c
       0.0341302 -0.011471544 -0.16549674 0.0270547
000140 f4 6d 65 3d 74 11 dc 3d aa 05 83 bd 13 e2 1d be
       0.056013063 0.107455164 -0.06397565 -0.15418272
000150 ee 6c a8 3c a4 e8 12 be c3 0a 83 bd 78 a5 d5 3d
       0.020559754 -0.14346558 -0.06398537 0.10431951
000160 3e 22 d8 bd 31 6e 2a be 35 68 be 3d 8c 77 88 bb
       -0.10553406 -0.16643597 0.0929722 -0.0041646417
000170 bb 3e bc 3c 3d 3a f6 3d fd d9 cd 3d 52 50 91 3d
       0.022979131 0.12022827 0.100513436 0.07095398

weight f4 [32, 96]
000000 f1 6d 83 bd 6d 80 61 bd 08 8a 80 bd 0a b3 a7 bd
       -0.06417454 -0.055054117 -0.06276327 -0.08188446
000010 c7 11 86 bd 10 5b 6f bd 40 58 5b 3d fa 25 70 3d
       -0.065463595 -0.058436453 0.05355096 0.058629967
000020 c1 97 ac 3c 36 9e b9 bd 01 c1 8c 3c e5 79 b3 bd
       0.021068456 -0.090633795 0.017181875 -0.08763484
000030 c2 bc 76 bc de e7 60 bc c1 35 56 3d da 79 ad bd
       -0.015059652 -0.013727156 0.052297357 -0.08470507
000040 1e 2f 20 bd 0f fc 51 bd f4 b2 de bd bb 5d 85 3d
       -0.039107434 -0.051265772 -0.10873976 0.06512018
000050 4e c5 91 3a ab f9 fc bc c4 ff 94 3d 2e 0c 01 3d
       0.0011121423 -0.03088077 0.07275346 0.031505756
000060 17 c7 68 3d 87 09 80 bc 2a 66 da bd ba 26 81 bd
       0.056830492 -0.015629543 -0.106640175 -0.06306215
000070 70 0f 4a 3d 20 fc 9a 3d 8d ab b3 bb 45 a1 b9 bd
       0.04933113 0.0756762 -0.005483097 -0.09063963
000080 96 e5 45 bd a1 eb 96 3d 6c 7e 7c bd 6b b1 63 bd
       -0.048314653 0.073691614 -0.061644003 -0.05558912
000090 6c 6e 9e bd 99 a8 ab bb 0d 8a e4 bb 4f b0 a3 3d
       -0.07735905 -0.0052386043 -0.0069744647 0.079926126
0000a0 3f 9d a9 3d b1 9d c1 bd aa bb 97 3d 48 65 8f bd
       0.082819454 -0.094539054 0.07408841 -0.0700174
0000b0 aa 19 5c bd 67 0d c4 3c 6d 0a cf 3b 86 9e 69 3d
       -0.053735413 0.023932172 0.0063183815 0.057035945
0000c0 f5 8f 9c 3d 83 01 8d bd b6 15 23 3d 2a 44 e3 bc
       0.07644645 -0.06885054 0.039815627 -0.027742464
0000d0 7d cc d2 bd 94 fc a4 3d 1c 17 92 bc 96 c7 80 bd
       -0.10292909 0.08055988 -0.017833285 -0.06288068
0000e0 fe a5 38 3c 00 01 a7 3c 3c b2 b1 bd 37 f3 93 bd
       0.011270044 0.020386219 -0.08676574 -0.07224124
0000f0 d8 e1 2e 3d 5c 67 bb bd ff 77 98 3c 49 e7 bb bc
       0.04269585 -0.091505736 0.018611906 -0.022937434
000100 de ef b0 3b d4 83 57 bd 11 53 c8 bb a1 77 af bd
       0.005399688 -0.052615955 -0.006113418 -0.08567739
000110 36 38 4e bd d3 45 0d 3d 0b 69 57 3d 7d 3b 3a bd
       -0.050346576 0.034490418 0.05259041 -0.04546689
000120 a2 d7 48 bc 4d 2f 1c bd c2 84 13 3d 04 e1 0e bd
       -0.012258442 -0.038131047 0.03601528 -0.03488256
000130 19 f5 25 bd 19 2c 99 3d 51 2e 5e 3c 11 b8 98 3c
       -0.040516946 0.07479114 0.013560847 0.018642457
000140 b9 90 88 3d b0 36 99 3d 5d 8a c1 3c 2d e7 49 bc
       0.06668229 0.07481134 0.023625547 -0.012323183
000150 47 3d 5e 3d e6 20 a7 bd da 4c dd bd 4e bc 9a bd
       0.054257657 -0.08160572 -0.10805674 -0.075554475
000160 b9 7d d8 bd 0f ef 35 bd 7c e9 ca bd da 9b bf bd
       -0.10570855 -0.044417437 -0.09907815 -0.09355898
000170 24 e0 96 3c cb 6a a8 3d 2e 7d b3 3d ee d3 a2 bd
       0.018417425 0.08223494 0.087641105 -0.07950579
000180 53 6c a9 3c 3c fa bd bc 8c 88 2d bd 45 c1 cc bd
       0.020681536 -0.02319061 -0.04236655 -0.09997801
000190 0d 13 63 bd 74 13 83 bd 16 99 5d 3d 71 3c f0 3c
       -0.05543809 -0.06400195 0.054101072 0.029325696
0001a0 3c 13 28 3d 26 c5 21 3c 1e 1b 32 bd 23 cd d1 bd
       0.04103397 0.009873664 -0.043482892 -0.10244205
0001b0 61 61 e2 bd cb b9 81 3d 12 55 a1 bc ff 99 47 3d
       -0.1105373 0.06334265 -0.019693885 0.048730846
0001c0 2e dc 9a bc 51 9a 2d bd 42 05 ff bb 3b 89 0f bd
       -0.018903818 -0.042383496 -0.007782609 -0.035042983
0001d0 c9 35 38 3d 26 9a 15 3d a9 8e 47 3d cf e7 76 3d
       0.04497317 0.03652396 0.048720036 0.060279664
0001e0 a2 ab 82 3d 68 77 5e 3d 91 09 1b 3d bc 44 4b bd
       0.063803926 0.054313093 0.03785092 -0.049626097
0001f0 51 cb 93 bd 4e 61 64 bd 6a 61 aa 3d 0b 0a 06 3d
       -0.07216514 -0.05575686 0.083193615 0.03272442
000200 0a 1c 4e bd 34 c6 55 bd 78 2c 86 bc b5 06 4c bb
       -0.05031971 -0.052190974 -0.016378626 -0.0031131927
000210 6c 52 93 bd c9 53 8b 3d 49 4f 98 bd 08 b2 22 3d
       -0.07193455 0.0680309 -0.074369974 0.039720565
000220 ef 9d b9 bd 1c 47 a9 bc ec b7 8b bd 4d ad 98 bd
       -0.090633266 -0.02066379 -0.0682219 -0.074549295
000230 4f 7d 9f bc 4c e3 d7 bd 26 70 8a 3d be a4 ac 3d
       -0.019468931 -0.105414 0.06759672 0.084298596
000240 6a 92 b1 bd 23 8e a9 3d 5b a2 6a bd e9 07 3f 3c
       -0.086705044 0.082790636 -0.05728374 0.011659601
000250 14 8e af bc a3 17 d5 3c fc 0d 2d 3d ff bc 0b bd
       -0.021430053 0.026012247 0.042249665 -0.034115788
000260 e7 38 31 bd 18 9b 9f bc 6c 6a 74 3d 2c 5b 0c 3c
       -0.043267157 -0.019483134 0.059671804 0.008566659
000270 a5 f0 a2 bd 03 6c 3c bd 0d 70 aa 3c a8 7d 20 39
       -0.079560556 -0.046001446 0.020805383 0.000153056
000280 42 1d 62 bd b1 bf 7c bd a2 1a e8 3c d0 62 41 bd
       -0.055203684 -0.06170625 0.028333012 -0.047213376
000290 38 6e b5 bd 33 5b 6d bb b9 a8 34 3d e2 43 3e 3d
       -0.08858913 -0.003621769 0.04410622 0.046451457
0002a0 70 5c b3 bd 50 55 a0 bc cc 5b d8 bc 2f 8f bc 3d
       -0.087578654 -0.01957193 -0.02641096 0.092069976
0002b0 54 38 62 3c 20 e1 1c bc 4a ac cd bc 8e 4c a0 3d
       0.013807375 -0.009575158 -0.025106568 0.07827102
0002c0 e9 30 bb bd 24 ac 91 3c bc 3b 29 3d 8e e4 51 3d
       -0.09140188 0.017782278 0.041316733 0.051243357
0002d0 92 cc 13 3c 85 ce c6 bd 39 84 77 3d 02 f7 b0 3d
       0.009020941 -0.09707359 0.06042883 0.08640863
0002e0 28 4c 3f 3d 75 65 fb bc 07 8d a3 bd 93 20 af bc
       0.046703488 -0.030688027 -0.07985883 -0.021377837
0002f0 24 96 c7 bd 3a 87 f9 bb 71 37 a1 bc 6a 7f a8 3c
       -0.09745434 -0.007614997 -0.019679757 0.020568568
000300 98 0b 0a 3d 87 fb d6 3c a1 55 15 bd f8 21 6b 3d
       0.033702463 0.026242984 -0.036458615 0.057405442
000310 22 aa 50 3d 40 0b 98 3d 19 4d c6 bc 3c e1 ab bc
       0.0509435 0.07424021 -0.024206685 -0.020981424
000320 76 f1 61 bd b8 88 b6 3d c9 5f 6a bd 15 8d 9a 3c
       -0.055161916 0.08912796 -0.057220254 0.018866101
000330 bc 09 cb bc 2c fc 4b 3d 22 96 33 3d c0 1d a1 3d
       -0.024784915 0.049801037 0.04384435 0.078670025
000340 94 62 ab 3d 93 89 6e 3c 33 fd b0 3d 34 55 87 bd
       0.08368412 0.014559167 0.08642044 -0.06608048
000350 c7 07 52 3d 1d ff 9f bd 98 d7 07 bd 29 3a ec bd
       0.05127695 -0.07812331 -0.03316459 -0.11534531
000360 3a d0 ee bd 9f 43 b9 3c ba 53 38 bd b6 ee a3 bd
       -0.1166081 0.022615252 -0.045001723 -0.08004515
000370 a9 56 87 3d 8f 47 a8 3d 4d ed 21 bc 8e 83 4c bd
       0.06608326 0.08216774 -0.009883237 -0.049930148
000380 2e 21 7a bd 34 87 a6 3c bf 2e 10 3d a1 99 83 bd
       -0.0610668 0.020328142 0.03520083 -0.06425787
000390 52 c6 9b 3d a9 69 ec bc 9c e1 b8 3d 97 1f 3f bd
       0.07606186 -0.028858976 0.090274066 -0.046660986
0003a0 bb a5 2b 3d 55 27 13 bd 0c af e3 3d d4 eb 56 3d
       0.0419061 -0.03592618 0.11117372 0.052470997
0003b0 1a 0b e9 3d b3 a2 53 3d 02 6a b0 bd 63 93 ad 3d
       0.113790706 0.051668834 -0.086139694 0.084753774
0003c0 83 fc f6 3c 67 90 5a bb 48 bf 95 3d 7f ad 92 bc
       0.030149704 -0.003335023 0.07311875 -0.017904995
0003d0 6f c2 8b bd 97 66 58 3d 05 5a 55 bd d4 93 e4 bd
       -0.06824195 0.052832212 -0.052087802 -0.111610085
0003e0 50 cb dc 39 44 2e 3c bd 3c 57 b6 bc dd 2e 9e bd
       0.0004211315 -0.04594256 -0.022258393 -0.07723782
0003f0 b6 9e 74 bd 14 f1 92 bd 26 bf d4 ba e8 92 76 bd
       -0.05972167 -0.07174888 -0.0016231283 -0.060198694

bias f4 [32]
000000 3c 53 ec bc 7e 40 4f bd f6 5f ac 3d 91 87 93 3d
       -0.028848283 -0.050598614 0.084167406 0.072035916
000010 25 ed b7 3c bc 18 ee bc 47 59 95 bd 20 89 61 bd
       0.022451947 -0.029064529 -0.07292419 -0.055062413
000020 b0 5b fc 3c 80 51 45 3d 58 35 83 3c d8 cf 8d 3d
       0.030805439 0.048173428 0.016016647 0.06924409
000030 fc 0e b4 3d 22 a1 96 bc 8e b4 a4 3d d3 ae aa 3d
       0.087919205 -0.018387381 0.080422506 0.08334126
000040 1a bb eb 3c 89 f1 b5 3d 97 76 f8 3c 24 61 4e bd
       0.02877574 0.0888396 0.030329986 -0.05038561
000050 91 6c 9d bd 08 f0 2d bd fb cc e0 3d 9e 07 8f bc
       -0.07686723 -0.04246524 0.10976597 -0.017459687
000060 a1 a8 9b bd 6f e7 57 bd 1d 0a e7 3d b9 4a 59 bd
       -0.07600523 -0.052710947 0.11281226 -0.053049777
000070 fd 73 d1 3d 65 58 79 bd 29 06 67 bc 7d 21 c7 bd
       0.10227201 -0.060875315 -0.01410059 -0.09723184
