models/MATBENCH/MEGNET/src/sae/model.blocks.1.conv.state_func.pkl (torch, 28936 bytes, 4 tensors)

weight f4 [96, 32]
0.10439956 -0.09515716 -0.1541208 0.1784625 0.11976949 0.06970728 0.14349034 0.15373692
-0.191729 -0.010297553 0.12506631 0.010266848 0.07340426 -0.15699941 -0.006286062 0.083229944
0.04505229 0.082349375 -0.1717477 0.019175673 -0.11557286 -0.16627194 -0.074797615 0.15076134
-0.005617225 -0.010914581 0.084124446 -0.116023384 0.05704244 -0.14108962 -0.036189552 -0.17983045
0.003022003 -0.10990467 0.0037032694 0.0240842 -0.08349893 -0.07534558 -0.052779414 0.1475462
-0.007232337 -0.10269042 -0.06583762 -0.072665565 0.079139695 0.038483232 0.15017155 0.07180422
0.12700006 -0.13238104 -0.11091548 -0.18556322 0.18461478 -0.055148486 -0.043862008 -0.015900036
0.07212962 -0.087664604 -0.16863285 0.13899554 -0.18466976 -0.01567472 -0.082942896 0.12766907
0.14952774 -0.09788319 0.15523732 0.18868934 0.032634024 0.11252909 -0.15472893 0.07680348
-0.058853745 -0.15864858 -0.17304334 -0.03730492 -0.061841007 0.18811995 -0.10543341 0.0075413953
-0.12793696 -0.012200763 -0.17350642 -0.0082860105 0.012685316 -0.1680417 0.08914408 0.019979225
-0.1691899 0.12466455 0.03731111 0.054323968 0.12249196 0.123349965 -0.0339797 -0.08710889
0.12749812 0.10302144 -0.17922264 0.042271413 0.0406351 0.15910426 -0.0615332 -0.08134779
-0.13709395 -0.011661801 -0.050002076 -0.14809941 0.03760649 0.045081634 0.03223057 0.05934195
-0.071905725 -0.01723855 0.10845902 -0.030787112 0.12217988 -0.051058013 0.09046244 -0.17057593
0.08688758 0.1220619 0.06276643 0.13683839 0.04679519 -0.11685213 -0.13796027 -0.050450277
0.14262371 -0.14123571 -0.06829884 0.10684985 0.11579326 -0.13062374 -0.13950375 0.123718716
-0.14590637 -0.016004732 -0.16561037 -0.023238074 0.078238524 -0.012579196 0.12242754 -0.18156075
-0.018581029 0.13466842 0.121056475 0.12765196 0.18754613 -0.18426076 0.08374923 -0.15341267
0.0060822424 0.07716733 -0.03171566 0.0039290013 0.11725774 -0.070518665 0.029002732 0.005073812
-0.15835826 -0.06934209 0.0883283 0.13516246 -0.09015884 -0.016252719 -0.1387316 0.11062886
0.122080885 0.15229006 0.13358264 0.14594913 -0.12857474 0.18269326 -0.119241305 -0.083898015
0.051452674 -0.08725671 -0.16332716 -0.089204356 0.024125144 -0.09594329 0.117663026 0.09018416
-0.18707791 0.059985533 0.06047828 0.099483006 -0.027338536 -0.0045437855 -0.056508422 0.12674235
-0.1612457 -0.038593113 -0.08786659 0.06999416 -0.14877772 0.06532876 -0.18079159 -0.085723326
-0.116289675 -0.01326659 -0.17174302 0.119711876 -0.018302443 -0.15398522 0.121148564 -0.15514722
-0.09968446 0.130289 -0.15475151 -0.061940845 -0.06264646 -0.05723273 0.11806753 -0.13630214
0.15572336 -0.01701283 -0.17864725 0.036520556 -0.15058814 0.09374131 -0.048077013 -0.16924284
-0.116468236 0.07251777 0.03141964 -0.08261035 -0.18424912 0.0428677 0.058942314 -0.17303082
0.14324711 -0.18271844 -0.18136221 -0.14913426 -0.06654735 -0.07214877 -0.05419115 -0.04837348
-0.038248762 0.09337716 0.12637141 -0.11903765 0.08002825 -0.063081734 0.043383922 -0.0677446
-0.17828268 0.040476862 0.027226396 0.12769799 -0.06678224 0.07148466 -0.15765278 -0.142456
00000000: 70cf d53d c2e1 c2bd d8d1 1dbe e0be 363e
00000010: b549 f53d b1c2 8e3d 22ef 123e 366d 1d3e
00000020: 9b54 44be 11b7 28bc 6211 003e 4836 283c
00000030: f954 963d 74c4 20be 4ffb cdbb 7674 aa3d
00000040: c088 383d caa6 a83d a1de 2fbe 4d16 9d3c
00000050: 77b1 ecbd 3143 2abe 7e2f 99bd 2e61 1a3e
00000060: b310 b8bb 12d3 32bc 7049 ac3d ab9d edbd
00000070: 55a5 693d cc79 10be 7f3b 14bd 7925 38be
00000080: cc0c 463b b315 e1bd 8db2 723b 3a4c c53c
00000090: 7d01 abbd c94e 9abd 3a2f 58bd 5a16 173e
000000a0: 3dfd ecbb 5b4f d2bd e0d5 86bd afd1 94bd
000000b0: fe13 a23d 98a0 1d3d 92c6 193e 170e 933d
000000c0: 4e0c 023e e58e 07be a827 e3bd 4904 3ebe
000000d0: a80b 3d3e 61e3 61bd a6a8 33bd cb40 82bc
000000e0: b2b8 933d 8089 b3bd 17ae 2cbe d954 0e3e
000000f0: 121a 3dbe 4568 80bc f7dd a9bd aebb 023e
00000100: cd1d 193e fb76 c8bd 88f6 1e3e c737 413e
00000110: 41ab 053d a775 e63d 4371 1ebe 254b 9d3d
00000120: a010 71bd c674 22be 4632 31be 0bcd 18bd
00000130: ff4c 7dbd 84a2 403e 79ed d7bd cf1d f73b
00000140: e801 03be b6e5 47bc abab 31be 0cc2 07bc
00000150: 12d6 4f3c 2013 2cbe 2c91 b63d 79ab a33c
00000160: 1e40 2dbe 2150 ff3d 89d3 183d cf82 5e3d
00000170: 11dd fa3d e89e fc3d 4c2e 0bbd 2566 b2bd
00000180: de8e 023e e8fc d23d 2486 37be ca24 2d3d
00000190: fe70 263d 3aec 223e 3d0a 7cbd ac99 a6bd
000001a0: 5b62 0cbe 2311 3fbc face 4cbd 5fa7 17be
000001b0: 4309 1a3d 85a7 383d 3404 043d 8b10 733d
000001c0: 4f43 93bd dc37 8dbc c31f de3d 4135 fcbc
000001d0: 7239 fa3d 3522 51bd 5f44 b93d 75ab 2ebe
000001e0: 1ef2 b13d 97fb f93d b08b 803d 5d1f 0c3e
000001f0: 50ac 3f3d 2b50 efbd 7545 0dbe f3a4 4ebd
00000200: f30b 123e 18a0 10be 43e0 8bbd 18d4 da3d
00000210: 0425 ed3d 3bc2 05be 12da 0ebe 3d60 fd3d
00000220: 7b68 15be 5b1c 83bc c495 29be c65d bebc
00000230: 853b a03d f918 4ebc 4abb fa3d 10eb 39be
00000240: 3e37 98bc 85e6 093e 75ec f73d 32b7 023e
00000250: 180c 403e daae 3cbe b784 ab3d 3618 1dbe
00000260: 8c4d c73b e809 9e3d 48e8 01bd dabe 803b
00000270: d324 f03d 176c 90bd 2397 ed3c 3842 a63b
00000280: ab28 22be 3a03 8ebd 78e5 b43d 0768 0a3e
00000290: 33a5 b8bd 6c24 85bc a80f 0ebe 6291 e23d
000002a0: 8b05 fa3d edf1 1b3e e3c9 083e b073 153e
000002b0: 19a9 03be f113 3b3e c934 f4bd b9d2 abbd
000002c0: 0ac0 523d a5b3 b2bd 3c3f 27be c6b0 b6bd
000002d0: 18a2 c53c ea7d c4bd 50f9 f03d 79b2 b83d
000002e0: 5a91 3fbe 64b3 753d 13b8 773d bfbd cb3d
000002f0: 11f5 dfbc 09e4 94bb 6075 67bd bfc8 013e
00000300: 981d 25be d013 1ebd 66f3 b3bd 1959 8f3d
00000310: 3059 18be 16cb 853d 6e21 39be b68f afbd
00000320: 4829 eebd 1d5c 59bc 67dd 2fbe 802b f53d
00000330: 01ef 95bc 4dae 1dbe bd1c f83d eade 1ebe
00000340: 5e27 ccbd 7b6a 053e 2e77 1ebe afb5 7dbd
00000350: ca4c 80bd de6c 6abd 64cd f13d ca92 0bbe
00000360: f275 1f3e 7e5e 8bbc 4eef 36be 9496 153d
00000370: c733 1abe 72fb bf3d 67ec 44bd ff4d 2dbe
00000380: e686 eebd 3284 943d e1b1 003d 9d2f a9bd
00000390: cdab 3cbe 0b96 2f3d 7f6d 713d fe2e 31be
000003a0: 5faf 123e 8b1a 3bbe 04b7 39be a7b6 18be
000003b0: fa49 88bd bcc2 93bd 8af7 5dbd 4523 46bd
000003c0: bcaa 1cbd 863c bf3d 8267 013e 03ca f3bd
000003d0: dae5 a33d ff30 81bd 57b3 313d aebd 8abd
000003e0: bc8f 36be 11cb 253d e409 df3c 43c3 023e
000003f0: 21c5 88bd 8d66 923d bb6f 21be fcdf 11be

bias f4 [96]
0.03545955 0.12848589 0.01098942 -0.17382379 -0.05558232 -0.011152626 0.005169397 0.12145753
-0.08091518 0.11015896 0.09869276 0.04792622 -0.19064753 -0.14890942 0.038280968 0.03435123
-0.07618323 -0.18426444 -0.1367877 0.13980708 0.028315444 0.14039323 0.02596903 -0.12945247
-0.020504557 0.10994526 0.0163975 -0.114259906 0.112505585 0.025417367 -0.03282457 -0.106066786
-0.17818014 0.08493875 -0.16696878 -0.09842175 -0.064034075 0.08048578 -0.06737487 -0.15149122
0.06592946 0.10818645 -0.106984116 -0.07582033 0.06601935 0.11926356 -0.0068965387 -0.039680187
-0.04919389 0.06175387 0.12826812 -0.010893265 0.06715982 -0.108068824 -0.13330764 0.08040804
-0.1060014 -0.14223877 0.117839664 0.14600584 -0.109260306 -0.13943554 -0.038759492 -0.14982393
0.07813589 0.05744475 -0.048984203 -0.16989732 -0.041692905 -0.14179882 0.06748459 0.0021050577
-0.10447518 0.0089239525 -0.06274285 -0.16105855 -0.09905645 0.09164134 -0.09810917 -0.09639459
-0.016927032 -0.043752734 -0.019809136 0.15862405 -0.1358263 -0.018766016 0.006291402 -0.06955649
0.030998815 -0.15851709 0.13026457 -0.04827304 -0.14556067 -0.0004197855 0.124111645 -0.0459743
00000000: 083e 113d ce91 033e f80c 343c ddfe 31be
00000010: 49aa 63bd 81b9 36bc 0c64 a93b babe f83d
00000020: dcb6 a5bd 059b e13d 6e1f ca3d 494e 443d
00000030: 1b39 43be b67b 18be 81cc 1c3d e0b3 0c3d
00000040: f405 9cbd d1af 3cbe 1312 0cbe 9629 0f3e
00000050: caf5 e73c 3ec3 0f3e 01bd d43c 308f 04be
00000060: 2cf9 a7bc fb2a e13d 0d54 863c 1901 eabd
00000070: 5469 e63d 1538 d03c 0e73 06bd 8b39 d9bd
00000080: db74 36be 5ef4 ad3d ddf9 2abe 5891 c9bd
00000090: 4c24 83bd bbd5 a43d d6fb 89bd 8420 1bbe
000000a0: 0606 873d dc90 dd3d 7d1a dbbd b047 9bbd
000000b0: 2735 873d 7440 f43d 5cfc e1bb b187 22bd
000000c0: 887f 49bd a0f1 7c3d b858 033e aa79 32bc
000000d0: 168b 893d 3053 ddbd cc81 08be f8ac a43d
000000e0: 4317 d9bd 0aa7 11be ec55 f13d 8e82 153e
000000f0: dec3 dfbd 31c8 0ebe 46c2 1ebd 726b 19be
00000100: b605 a03d 304b 6b3d a9a3 48bd 90f9 2dbe
00000110: 2ec6 2abd b633 11be 5c35 8a3d 02f5 093b
00000120: 15f7 d5bd c535 123c 537f 80bd 88ec 24be
00000130: 1cde cabd 74ae bb3d 76ed c8bd 876a c5bd
00000140: 8faa 8abc 1136 33bd c546 a2bc 586e 223e
00000150: 0d16 0bbe 30bb 99bc 1b28 ce3b a273 8ebd
00000160: 3af1 fd3c 4e52 22be 1364 053e f4b9 45bd
00000170: db0d 15be a816 dcb9 3f2e fe3d 8c4f 3cbd

weight f4 [32, 96]
0.04260414 0.027901066 0.094381325 0.102020964 0.0260667 0.1034642 0.09128292 0.017618405
0.097477905 0.10282659 -0.01881963 0.10094688 -0.08412484 0.023712473 0.09330004 0.038446978
0.08578232 -0.0215056 -0.082649656 0.074176334 -0.046666395 0.038734432 -0.033364482 -0.0002730565
0.085032046 -0.0712862 -0.096954785 0.06342361 -0.040669464 0.011502879 0.025838891 -0.06430143
-0.06632398 -0.04259264 -0.06376748 0.04795076 -0.087803535 0.025033448 -0.053757846 0.08571682
-0.0804422 0.012135258 -0.097604014 -0.021944765 0.044398505 0.009346066 0.063526176 0.06419025
-0.019693011 0.019741578 -0.07568976 -0.06509477 0.102048464 0.028347299 -0.043185107 0.054960277
0.07670196 -0.010418848 0.022087434 0.09443426 0.019761564 0.0022168155 0.03612735 -0.06173401
-0.041391157 0.04397636 0.09977833 0.033878203 0.028128125 -0.06515714 -0.0025180618 -0.016883364
0.0349063 -0.06253626 0.027171772 -0.054671384 -0.07698202 -0.09677039 -0.07138966 0.059319906
0.023165653 -0.008796401 0.07186882 -0.075792976 0.05342846 -0.07560293 0.05543218 -0.027281465
-0.0399342 0.06538723 0.0431323 -0.06882822 0.045084827 -0.080213934 0.052913845 -0.035982158
-0.074522234 -0.061706055 0.034053728 0.07985846 0.08122143 -0.06524809 -0.06219682 -0.00041695143
0.033975 0.04999369 -0.0059868903 0.023498436 -0.09047847 -0.030325709 -0.040423587 0.1083649
-0.021086283 -0.058099948 -0.025444688 0.037854683 0.07437087 -0.056085885 0.09906489 -0.037092615
-0.03001072 -0.06799106 -0.0147784185 0.05501677 -0.08930678 -0.057240687 -0.089035906 0.023705026
0.03630321 0.048816223 -0.09204343 0.09873863 -0.034129277 0.045426097 -0.006638464 -0.013087699
-0.037792746 0.011822109 0.0069049983 0.0809155 -0.032576162 -0.04731807 -0.08074572 -0.061298728
-0.03809074 -0.023396842 -0.042930886 -0.07076642 0.026806897 -0.060586337 0.08548178 0.024108268
-0.03736894 -0.05020509 0.06882212 -0.003237569 0.089689545 0.053825494 0.10034973 0.06306027
-0.019685388 -0.08350444 0.0585952 0.015281277 0.0021645525 -0.02253222 0.044857163 0.047232416
0.047460493 0.09377384 0.09151999 -0.025701532 -0.06696208 -0.06677897 0.061305437 -0.029768258
0.08410286 0.026585883 -0.019519525 -0.013188241 -0.023218669 0.09681673 0.075975634 0.0583674
0.022287527 -0.009797433 -0.08132899 -0.07020771 -0.03031534 0.07136978 -0.018101003 -0.07724489
-0.020210408 -0.028930312 0.08740094 -0.08870705 -0.04203025 -0.08813738 -0.0066922447 0.01096917
0.039000142 0.053425338 -0.019545378 -0.06729977 -0.059207123 0.070716634 0.07920681 -0.07792164
-0.054139864 0.013999419 0.036639232 0.049345326 0.09909993 -0.08798235 0.021801705 0.00053590833
0.016012467 0.020198679 -0.02495526 -0.023941388 0.04198202 0.019595278 0.009828463 0.107234076
0.04671839 0.086508684 -0.010579678 0.09758619 0.0119704185 -0.055907197 0.031315714 0.034511607
-0.073836915 0.01039795 0.06937917 0.036444817 0.09427103 -0.08785605 0.020364596 -0.06397242
0.043008797 -0.03447648 0.096032575 -0.07639917 0.015546722 -0.040282927 -0.056173936 -0.017583273
-0.09122101 0.08209884 -0.07728327 -0.057493962 -0.0117720375 0.09527069 0.016507694 -0.046937454
00000000: ae81 2e3d c790 e43c ff4a c13d 5ef0 d03d
00000010: d589 d53c 0ae5 d33d 8af2 ba3d 7954 903c
00000020: 7fa2 c73d bf96 d23d a02b 9abc 3dbd ce3d
00000030: a549 acbd a940 c23c 1714 bf3d 947a 1d3d
00000040: a4ae af3d 832c b0bc 3944 a9bd c3e9 973d
00000050: 4325 3fbd ffa7 1e3d 32a9 08bd 0629 8fb9
00000060: 4825 ae3d 80fe 91bd 3b90 c6bd 3de4 813d
00000070: 0695 26bd 9276 3c3c 15ac d33c 78b0 83bd
00000080: ded4 87bd 9f75 2ebd 8698 82bd 0468 443d
00000090: 57d2 b3bd f212 cd3c 3031 5cbd 4d8c af3d
000000a0: e1be a4bd f6d2 463c 9de4 c7bd 82c5 b3bc
000000b0: 35db 353d 3e20 193c 031a 823d 2e76 833d
000000c0: 3d53 a1bc 17b9 a13c 3c03 9bbd 6850 85bd
000000d0: c9fe d03d 9838 e83c dee2 30bd 071e 613d
000000e0: eb15 9d3d d1b3 2abc b5f0 b43c c066 c13d
000000f0: 01e3 a13c fe47 113b 46fa 133d cddc 7cbd
00000100: c689 29bd 8e20 343d 9558 cc3d dfc3 0a3d
00000110: f46c e63c 1b71 85bd 1106 25bb fb4e 8abc
00000120: e9f9 0e3d 0313 80bd 5697 de3c 1aef 5fbd
00000130: c0a8 9dbd 8e2f c6bd be34 92bd 6ef9 723d
00000140: e5c5 bd3c c81e 10bc f62f 933d 5939 9bbd
00000150: cdd7 5a3d b5d5 9abd db0c 633d 617d dfbc
00000160: 0b92 23bd bde9 853d 7fab 303d cff5 8cbd
00000170: deaa 383d 3447 a4bd 30bc 583d 0762 13bd
00000180: 1d9f 98bd 7dbf 7cbd ec7b 0b3d d58c a33d
00000190: 6c57 a63d caa0 85bd 18c2 7ebd 469a dab9
000001a0: 5f29 0b3d 2fc6 4c3d ad2d c4bb cb7f c03c
000001b0: c74c b9bd 9f6d f8bc 3493 25bd 6bee dd3d
000001c0: 24bd acbc 36fa 6dbd 6171 d0bc 830d 1b3d
000001d0: c14f 983d 50ba 65bd 88e2 ca3d 6dee 17bd
000001e0: 0bd9 f5bc e63e 8bbd 2e21 72bc 4459 613d
000001f0: 79e6 b6bd 3675 6abd 7558 b6bd 0b31 c23c
00000200: adb2 143d 85f3 473d 4481 bcbd 7b37 ca3d
00000210: 24cb 0bbd b710 3a3d 7987 d9bb ca6d 56bc
00000220: 91cc 1abd 85b1 413c 5343 e23b 07b7 a53d
00000230: 956e 05bd 98d0 41bd 035e a5bd 6014 7bbd
00000240: 0905 1cbd bcaa bfbc 4cd8 2fbd fced 90bd
00000250: 239a db3c 6129 78bd 1211 af3d b47e c53c
00000260: 2c10 19bd daa3 4dbd 9df2 8c3d 652d 54bb
00000270: 27af b73d 1f78 5c3d 2984 cd3d be25 813d
00000280: 4043 a1bc 6004 abbd 8501 703d 525e 7a3c
00000290: 2adb 0d3b 7e95 b8bc 25bc 373d c776 413d
000002a0: ef65 423d 800c c03d d56e bb3d 058c d2bc
000002b0: 6a23 89bd 6ac3 88bd 691b 7b3d 90dc f3bc
000002c0: 1f3e ac3d a3ca d93c 69e7 9fbc 7e13 58bc
000002d0: 1435 bebc da47 c63d 1d99 9b3d a812 6f3d
000002e0: 5594 b63c 6a85 20bc d08f a6bd 0fc9 8fbd
000002f0: e057 f8bc 522a 923d 8e48 94bc 9232 9ebd
00000300: 4c90 a5bc 43ff ecbc 44ff b23d 0bac b5bd
00000310: e927 2cbd 5f81 b4bd 9e4a dbbb 09b8 333c
00000320: 9dbe 1f3d 87d4 5a3d a11d a0bc 76d4 89bd
00000330: 2b83 72bd e2d3 903d 2e37 a23d 6195 9fbd
00000340: c3c1 5dbd d25d 653c 0513 163d 531e 4a3d
00000350: e7f4 ca3d 1730 b4bd 7d99 b23c 337c 0c3a
00000360: 942c 833c b377 a53c f96e ccbc bb20 c4bc
00000370: 57f5 2b3d 4786 a03c 9007 213c 8a9d db3d
00000380: c85b 3f3d 772b b13d 6356 2dbc 45db c73d
00000390: 931f 443c f2fe 64bd e844 003d 0b5c 0d3d
000003a0: cf37 97bd 2a5c 2a3c ab16 8e3d 2947 153d
000003b0: 2b11 c13d dfed b3bd a7d3 a63c f903 83bd
000003c0: fe29 303d 3637 0dbd baac c43d 2b77 9cbd
000003d0: aeb7 7e3c b6ff 24bd a416 66bd cc0a 90bc
000003e0: 15d2 babd 7023 a83d b146 9ebd ca7e 6bbd
000003f0: 81df 40bc 481d c33d 253b 873c 7d41 40bd

bias f4 [32]
-0.0053502265 0.04120323 -0.06885737 0.07739835 0.040611576 -0.04489782 -0.074201666 0.03186408
-0.092680536 0.039970517 0.07139364 -0.04308532 0.059602473 0.088919654 -0.09089995 -0.02378048
-0.0067269765 0.009044772 0.104773626 0.016035773 -0.035245623 -0.0008068746 0.08864473 -0.043149732
0.015334296 0.021359688 -0.004720177 0.022296136 0.03867052 0.016026547 0.02740792 -0.056026127
00000000: f450 afbb b8c4 283d 1805 8dbd 0783 9e3d
00000010: 5358 263d c7e6 37bd 0bf7 97bd e983 023d
00000020: 4bcf bdbd 20b8 233d d436 923d 3c7a 30bd
00000030: b921 743d 821b b63d c129 babd 48cf c2bc
00000040: f86d dcbb 8630 143c 8e93 d63d 745d 833c
00000050: b75d 10bd 7084 53ba 5e8b b53d c6bd 30bd
00000060: b33c 7b3c 83fa ae3c b7ab 9abb 63a6 b63c
00000070: fb64 1e3d 1b4a 833c 9386 e03c a77b 65bd
