models/MATBENCH/MEGNET/src/sae/model.blocks.1.conv.edge_func.layers.5.pkl (torch, 10312 bytes, 4 tensors)

weight f4 [48, 16]
0	0xbe3fff24	-0.18749672
1	0xbd473c64	-0.048641577
2	0xbdd361c8	-0.10321385
3	0x3e825283	0.25453576
4	0x3e386839	0.18008508
5	0x3df6bd24	0.120477945
6	0xbe2a73ab	-0.16645686
7	0x3b8bad40	0.0042625964
8	0xbde0c96e	-0.1097592
9	0x3e4a7f36	0.1977509
10	0x3e1fc9b8	0.15604293
11	0x3d1d5214	0.038408354
12	0x3e5d5e43	0.21617989
13	0xbe35ee79	-0.17766751
14	0x3e7f2b87	0.24918948
15	0xbe1d7008	-0.15374768
16	0x3e496a1e	0.19669387
17	0x3e5bde22	0.21471456
18	0xbe85159b	-0.25993046
19	0x3d908dc8	0.070582926
20	0x3d3b0020	0.045654416
21	0xbdf9c741	-0.12196208
22	0xbe58aafc	-0.21158975
23	0x3e23d4c0	0.15999126
24	0xbd85f46d	-0.06540761
25	0xbde85b4f	-0.11345541
26	0x3d3c4c62	0.04597128
27	0xbe76c9d6	-0.24100432
28	0xbdb50101	-0.08838082
29	0xbca4219a	-0.020035554
30	0xbdee9461	-0.11649395
31	0x3e30a8a8	0.17251837
32	0xbda0319f	-0.078219645
33	0x3e52a1af	0.2056949
34	0x3dae5155	0.085116066
35	0xbe26d727	-0.16293012
36	0xbe592d1d	-0.21208616
37	0xbe42cf85	-0.19024475
38	0xbd974d9c	-0.0738785
39	0x3d6828f2	0.056679673
40	0xbd34e971	-0.04416794
41	0x3b3e6f14	0.0029057907
42	0xbe72bfe3	-0.23706011
43	0x3d80a0c2	0.06280662
44	0x3d46d378	0.048541516
45	0x3dcdf722	0.100569025
46	0x3c8c6f1b	0.017142823
47	0xbe521eea	-0.20519605
48	0x3e373643	0.17891793
49	0x3e5cd01a	0.2156376
50	0x3e4f3de2	0.2023845
51	0xbe1487dd	-0.14504953
52	0x3dc5c592	0.09656824
53	0xbe20373d	-0.15646072
54	0xbd7d58d3	-0.061852288
55	0x3df54eea	0.11977942
56	0xbe5f3865	-0.21798857
57	0x3cd3210e	0.025772598
58	0xbe86087e	-0.26178354
59	0xb8f922c0	-0.00011879718
60	0x3dc978f3	0.09837522
61	0xbe2b50d7	-0.16730057
62	0xbdb05de0	-0.08611655
63	0x3df1dda9	0.118098564
64	0x3dc52917	0.09626978
65	0x3c2d8737	0.01059132
66	0xbe02227b	-0.12708466
67	0x3e5ca78e	0.21548292
68	0xbe5d60c0	-0.21618938
69	0x3d2887ca	0.041145124
70	0xbd8c19e7	-0.06840878
71	0x3de580c5	0.112062015
72	0xbd837e80	-0.06420612
73	0x3e38311a	0.17987481
74	0xbe630ede	-0.2217364
75	0xbd10be6c	-0.03533785
76	0xbd0f9d1a	-0.035061933
77	0xbe18f67d	-0.14937778
78	0x3e7b5971	0.24545838
79	0x3e022853	0.12710695
80	0x3d944022	0.07238795
81	0xbe4a6690	-0.19765687
82	0xbd2db05d	-0.04240452
83	0xbca83a75	-0.020535687
84	0xbd63b539	-0.05559275
85	0x3c81e8ce	0.01585808
86	0x3cdc1066	0.026863288
87	0x3d6c919f	0.057756063
88	0x3d31cbb6	0.043407165
89	0x3e855c11	0.26046804
90	0x3e341881	0.17587472
91	0xbd937d68	-0.07201654
92	0xbdffd93c	-0.12492606
93	0x3d2db183	0.042405616
94	0xbd318a18	-0.043344587
95	0x3e14a2c4	0.14515215
96	0x3d8c59e4	0.06853083
97	0xbe502a84	-0.20328718
98	0xbca8f9ea	-0.02062698
99	0x3e67a6ff	0.22622298
100	0x3cc194b2	0.023630474
101	0xbe6d0e8a	-0.23150077
102	0x3e097373	0.13422947
103	0xbe0ed017	-0.13946567
104	0x3d22a0db	0.039704185
105	0x3e2c7a33	0.1684349
106	0x3e40ba34	0.18821031
107	0xbcce4ea2	-0.02518398
108	0x3be8866c	0.0070961025
109	0xbe021d5b	-0.1270651
110	0xbc64ca79	-0.013964289
111	0x3e1697e1	0.14706375
112	0xbe5781de	-0.21045634
113	0x3dd47834	0.103744894
114	0x3e1be093	0.15222387
115	0x3a4a3021	0.000771286
116	0x3e3eaa3a	0.18619624
117	0xbe811bf9	-0.25216654
118	0x3e18a1e6	0.1490551
119	0xbe3a1d2f	-0.18175195
120	0xbdfac9bc	-0.12245509
121	0xbd803163	-0.0625942
122	0xbe64bae0	-0.22336912
123	0xbe4c6d2c	-0.19963521
124	0x3e750451	0.23927428
125	0xbdabeb0a	-0.083944395
126	0xbdbcee19	-0.09225101
127	0x3ddbe79d	0.10737536
128	0xbe3ccd4d	-0.18437691
129	0x3e7ece04	0.24883276
130	0x3d12774f	0.035758313
131	0xbc61e261	-0.013786883
132	0xbd96b25a	-0.073582366
133	0xbe4f221b	-0.20227854
134	0x3e7b7171	0.24554993
135	0xbe27344f	-0.16328548
136	0x3e4015fb	0.18758385
137	0xbe179188	-0.1480161
138	0xbe676ea0	-0.22600794
139	0x3e174833	0.14773636
140	0x3e1b66d9	0.15175952
141	0xbe2d663c	-0.1693353
142	0xbe468a9b	-0.19388811
143	0xbd2e594d	-0.042565633
144	0xbdc7d0bc	-0.0975661
145	0xbe0550ff	-0.13019179
146	0x3c5ac2b9	0.01335209
147	0x3e57c953	0.21072893
148	0x3db418c2	0.08793785
149	0x3d9c8425	0.07642392
150	0xbe09e8f2	-0.13467768
151	0xbe0a3075	-0.13495047
152	0xbe08dd7f	-0.13365744
153	0x3def0a2e	0.116718635
154	0x3e3c144c	0.18367118
155	0x3cc7df88	0.02439858
156	0xbd9a2d82	-0.07528211
157	0x3dc49f5f	0.0960071
158	0x3c6b642c	0.014367145
159	0x3df0267e	0.11726092
160	0xbe625921	-0.22104312
161	0xbe5b8c65	-0.21440275
162	0xbe3b10b2	-0.18268088
163	0xbe28d371	-0.16486908
164	0xbd2043b9	-0.039127085
165	0x3e1ea3d1	0.15492178
166	0xbe2daa62	-0.16959527
167	0xbdc891b5	-0.097934164
168	0x3e1b0189	0.15137304
169	0xbe32a5ec	-0.17446107
170	0xbdab8c31	-0.08376349
171	0x3e154539	0.14577188
172	0xbe61451c	-0.2199902
173	0xbdea60a2	-0.114442125
174	0x3e61ab3b	0.22037975
175	0xbde1163a	-0.109905675
176	0x3e523b40	0.20530415
177	0x3e0663f1	0.13124062
178	0xbd8f6aae	-0.070027694
179	0x3cefc2b3	0.029267645
180	0xbd5e39b9	-0.054254267
181	0x3e008a3a	0.12552729
182	0x3d09336c	0.033496305
183	0xbd9e60a1	-0.07733274
184	0x3e1e1bb6	0.15440258
185	0xbe47d7e9	-0.19515957
186	0xbdcac6cd	-0.099011995
187	0xbe3d7cdf	-0.18504666
188	0x3e6013f3	0.2188261
189	0xbd683cd5	-0.05669864
190	0xbde3a968	-0.11116296
191	0x3e16071f	0.14651154
192	0xbd4ea38f	-0.05044895
193	0xbd93c2ec	-0.07214913
194	0xbdc1cb64	-0.09462622
195	0xbdc5ae1b	-0.096523486
196	0x3d9f109e	0.07766841
197	0x3e858235	0.26075903
198	0x3e3c0923	0.1836286
199	0xbe456e06	-0.19280252
200	0xbe15d258	-0.14631021
201	0xbdde428e	-0.10852538
202	0xbb8d0570	-0.0043036267
203	0xbd96f412	-0.073707715
204	0xbda0714f	-0.07834112
205	0xbe60f0e2	-0.2196689
206	0x3e64e1cb	0.22351758
207	0xbe59da6b	-0.21274726
208	0x3e62ef63	0.22161631
209	0x3e0f16ad	0.13973494
210	0x3e0236d8	0.12716234
211	0x3d83f76d	0.06443677
212	0x3e273ad5	0.16331036
213	0x3d8fe573	0.07026186
214	0x3e096965	0.13419111
215	0xbe01035f	-0.12598942
216	0xbe346310	-0.17615914
217	0x3b8c098d	0.0042735995
218	0x3e0968ed	0.13418932
219	0x3e84a292	0.2590528
220	0xbb6e68e8	-0.0036378447
221	0xbd0dd728	-0.034629017
222	0xbdacb7bb	-0.08433481
223	0xbe47e012	-0.1951907
224	0xbe0d2b42	-0.13786033
225	0x3e3a76a8	0.18209326
226	0x3e2cc398	0.16871488
227	0xbe1e4e5d	-0.1545958
228	0xbd943f36	-0.07238619
229	0xbe21e420	-0.15809679
230	0x3e247b52	0.16062668
231	0x3dbfd060	0.09365916
232	0x3e73d5b2	0.23811987
233	0x3e5319d3	0.2061532
234	0x3dca7970	0.098864436
235	0xbe05c7d0	-0.13064504
236	0x3d87d714	0.0663282
237	0x3d23ea3c	0.040018305
238	0x3c1e5fc0	0.009666383
239	0x3b99978f	0.0046872566
240	0xbe2fce47	-0.17168532
241	0x3d7a883d	0.061165083
242	0x3e0e1edd	0.13878961
243	0xbceaa405	-0.028642664
244	0x3e61117b	0.21979325
245	0xbddc526b	-0.107579075
246	0xbe1b45b1	-0.15163304
247	0xbe5fc1bb	-0.21851246
248	0xbe416b9d	-0.18888707
249	0x3e44a76b	0.1920449
250	0x3e346f31	0.17620541
251	0x3b93760f	0.0045001577
252	0x3e1ebf32	0.15502623
253	0x3db5716d	0.08859525
254	0x3e479bd2	0.19493034
255	0xbd9bb36e	-0.07602583

bias f4 [48]
0	0xbc8ea5ab	-0.017412981
1	0x3e3609d2	0.17777184
2	0xbe478065	-0.19482572
3	0xbe2dfbd6	-0.16990599
4	0xbb7a8bb2	-0.0038230238
5	0xbd997b21	-0.07494188
6	0x3e4cec91	0.20012118
7	0xbdcc426f	-0.09973609
8	0x3df443b4	0.11926976
9	0xbe044f61	-0.12920906
10	0xbc2f188a	-0.010687003
11	0x3e14a772	0.14517
12	0x3dc31dc7	0.09527164
13	0x3d2895ac	0.041158363
14	0x3bdb1d3a	0.0066868337
15	0x3d80eaf6	0.06294815
16	0xbc9df5b8	-0.019282207
17	0x3dc78504	0.097421676
18	0x3c979cd3	0.018507397
19	0x3dad1b50	0.08452475
20	0xbd35e587	-0.044408347
21	0x3e65c9fa	0.22440329
22	0xbe874026	-0.2641613
23	0x3e3380f1	0.17529656
24	0xbdfd0af2	-0.12355603
25	0x3e5b584c	0.21420401
26	0xbe33a434	-0.17543107
27	0xbd271bc4	-0.040797964
28	0x3e62bea5	0.22143038
29	0x3e391250	0.18073392
30	0x3d821195	0.0635101
31	0x3d1b1830	0.037864864
32	0x3d1d97c3	0.03847481
33	0xbe3b086b	-0.1826493
34	0xbd3b0a76	-0.045664273
35	0xbd28f161	-0.041245822
36	0x3e0c885a	0.13723889
37	0xbdde73f1	-0.10861958
38	0x3e62b658	0.22139871
39	0x3ddd0eaa	0.107938126
40	0x3d24c71a	0.04022894
41	0xbe508de5	-0.20366628
42	0x3e22eca4	0.15910584
43	0x3e43a5cd	0.19106217
44	0x3e3f3b97	0.18675075
45	0x3df9f67a	0.12205215
46	0x3d2adbb0	0.041713417
47	0xbe034c62	-0.12822106

weight f4 [16, 48]
0	0xbdc85cb8	-0.0978331
1	0x3d88a474	0.06671992
2	0x3db2be78	0.08727735
3	0x3dfb0faa	0.12258847
4	0xbe053062	-0.13006738
5	0x3db18a22	0.08668925
6	0x3dd3c039	0.10339398
7	0x3e00a9aa	0.12564722
8	0x3d8f3eb5	0.06994382
9	0xbdc61994	-0.096728474
10	0x3db98df5	0.09060279
11	0x3d8533bf	0.065040104
12	0xbddbed1d	-0.10738585
13	0xbd9b500a	-0.075836256
14	0xbd09b6f8	-0.03362176
15	0xbd702084	-0.05862476
16	0xbd824528	-0.06360847
17	0xbafae170	-0.0019140672
18	0xbd8f9216	-0.070102856
19	0xbdcf7b35	-0.10130922
20	0x3d86dbc3	0.06584885
21	0xbd69cba9	-0.05707899
22	0x3d91e2fc	0.07123372
23	0xbd918513	-0.0710546
24	0xbe213108	-0.1574136
25	0xbda579d7	-0.0807988
26	0xbd4fe387	-0.050754096
27	0xb86d1ed0	-5.65339e-05
28	0xbce778f1	-0.028255912
29	0xbd173259	-0.03691325
30	0xbe1cdc0c	-0.15318316
31	0xbdf56c53	-0.11983552
32	0x3e01cc75	0.1267565
33	0x3ccb22c4	0.024796851
34	0xbd899f1b	-0.067198
35	0x3d3d2fd9	0.04618821
36	0x3db88c3e	0.09011124
37	0x3ddcb7ec	0.10777268
38	0xbe1f7d13	-0.15575056
39	0xbe07c3b1	-0.13258244
40	0x3e005711	0.12533213
41	0x3d688a17	0.056772318
42	0x3d8a01f5	0.067386545
43	0x3df2c40d	0.118538
44	0x3d947428	0.072487175
45	0xbd68f0ef	-0.056870397
46	0xbe0b0990	-0.13577867
47	0xbdcb735b	-0.09934112
48	0x3dda93a2	0.1067269
49	0xbcac604e	-0.021042015
50	0x3dda3bd1	0.1065594
51	0x3d1a180a	0.03762058
52	0x3d649375	0.05580469
53	0xbdfc6422	-0.12323786
54	0x3ce3130a	0.02771904
55	0xbd08bc6b	-0.033382814
56	0xbc9ff045	-0.01952375
57	0x3d067fb9	0.03283665
58	0xbd9d6864	-0.076859266
59	0xbde6e7f8	-0.11274713
60	0xbd6a153f	-0.057149168
61	0xbd43e033	-0.047821235
62	0xbe1e3bf3	-0.15452556
63	0xbdf26981	-0.118365295
64	0x3ca45b54	0.02006308
65	0x3d064fbd	0.032790888
66	0xbcff6e1b	-0.031180432
67	0xbd0048a8	-0.03131929
68	0x3ca3d482	0.019998793
69	0x3c1e0bff	0.009646415
70	0x3dd4c9b5	0.10390035
71	0xbb84f076	-0.0040569855
72	0x3cd35ab9	0.025800096
73	0xbce5aeab	-0.02803739
74	0xbdb43182	-0.08798505
75	0x3e017bf5	0.12644942
76	0x3d3ab161	0.045579318
77	0xbdfd64a8	-0.12372714
78	0xbdf7379e	-0.12071155
79	0x3d880c56	0.06642978
80	0x3d78ac95	0.060711462
81	0xbd98afd1	-0.07455409
82	0x3d937ca1	0.072015055
83	0x3db1e0f9	0.08685488
84	0x3d5d631d	0.0540496
85	0x3df5acf3	0.11995878
86	0xbe102978	-0.14078319
87	0xbd0a1110	-0.03370768
88	0x3dcc3327	0.09970694
89	0xbe1c87c5	-0.15286167
90	0x3dc6e309	0.09711272
91	0x3d2c49ae	0.042062454
92	0xbd8dd701	-0.06925774
93	0xbd7ff2ae	-0.062487297
94	0x3d929327	0.07156973
95	0x3defd219	0.11709995
96	0xbd866edf	-0.06564116
97	0xbc7adcbe	-0.015311418
98	0xbe03d4cb	-0.12874143
99	0xbe14ae9b	-0.14519732
100	0x3d4bb3eb	0.04973213
101	0x3af982db	0.001903619
102	0x3dfc4050	0.12316954
103	0xbcfb6557	-0.030687971
104	0x3d73aae3	0.059489142
105	0xbbf900d3	-0.007598975
106	0xbd231fd5	-0.03982528
107	0xbd907a10	-0.070545316
108	0xbca21ebb	-0.019790044
109	0xbcea3853	-0.02859131
110	0x3b8d24a2	0.0043073455
111	0xbaefa2ef	-0.0018282811
112	0x3d5d1a0b	0.053979915
113	0x3df46957	0.119341545
114	0xbc943e00	-0.01809597
115	0x3a92f9f2	0.0011213406
116	0xbd134e7d	-0.035963524
117	0xbcf5aea8	-0.02999051
118	0x3dc02f3f	0.093840115
119	0x3d78c940	0.060738802
120	0xbd594418	-0.053043455
121	0xbd89019f	-0.06689762
122	0x3dc717b3	0.09721317
123	0x3d3b4650	0.045721352
124	0xbdd2d480	-0.102944374
125	0xbda16f21	-0.07882524
126	0x3da11d1b	0.078668796
127	0x3d2320af	0.03982609
128	0x3da4475b	0.080214225
129	0x3cca52f4	0.024697758
130	0xbd5696f0	-0.05239004
131	0x3da1c869	0.07899553
132	0xbdc562e1	-0.09638
133	0xbe179118	-0.14801443
134	0xbd870367	-0.06592446
135	0x3c9d8ad0	0.01923123
136	0xbded32a2	-0.11581923
137	0xbd2bbdff	-0.04192924
138	0xbdf73565	-0.12070731
139	0xbd9c8708	-0.07642943
140	0x3d1564ea	0.036473192
141	0x3d525433	0.05134983
142	0xbdefeccf	-0.117150895
143	0x3dd4de4d	0.10393963
144	0xbd004abb	-0.03132127
145	0x3d5c55f7	0.05379292
146	0x3c9cbea4	0.019133873
147	0xbd984c4f	-0.0743643
148	0x3e16dded	0.14733095
149	0x3d9612b9	0.0732779
150	0xbe0e11e1	-0.13874008
151	0xbd5461d5	-0.051851112
152	0x3dd19dac	0.10235152
153	0xbd9fa998	-0.07796019
154	0xbcce4a7b	-0.025182
155	0xbc8365a4	-0.016039677
156	0x3d0a8061	0.033813838
157	0x3d9e9efd	0.07745168
158	0xbd9a5e65	-0.075375356
159	0xbd98d4d6	-0.0746247
160	0x3dacb4ea	0.08432944
161	0xbdd07b70	-0.10179794
162	0xbd8a2dfa	-0.067470506
163	0xbda92c52	-0.082604066
164	0x3dafb9d4	0.08580366
165	0xbdd0444c	-0.101692766
166	0x3d3820f8	0.044953316
167	0xbd263ed9	-0.04058728
168	0x3c04af8d	0.008098495
169	0xbdc048d5	-0.093888916
170	0xbd6e50b2	-0.058182426
171	0xbc334aaf	-0.010943099
172	0xbd605f36	-0.0547783
173	0xbcc8ac20	-0.024496138
174	0xbdb667f8	-0.08906549
175	0x3de58f84	0.11209014
176	0xbd391023	-0.045181405
177	0xbd582d0e	-0.052777342
178	0x3e106c3c	0.14103788
179	0xbdd3a7a1	-0.10334707
180	0xbdcefa4c	-0.10106334
181	0x3dd94ed8	0.106107414
182	0x3d2ede7f	0.042692658
183	0x3dfa73d5	0.122291245
184	0xbe02f785	-0.12789734
185	0xbd21b023	-0.039474618
186	0xbdb878fe	-0.090074524
187	0xbd464596	-0.048406206
188	0xbdc36cb5	-0.095422186
189	0x3d22425c	0.039614066
190	0x3de51306	0.11185269
191	0xbd939526	-0.07206182
192	0xbd4e5dbc	-0.05038236
193	0xbdefacfd	-0.11702917
194	0x3d1f200b	0.038848918
195	0x3cdcb1c3	0.026940232
196	0x3b151afa	0.0022751675
197	0xbccee01b	-0.025253346
198	0x3ddd0fb5	0.107940115
199	0xbd4df97b	-0.05028675
200	0xbd098a8b	-0.03357939
201	0xbc752246	-0.014961785
202	0x3d76b374	0.060229734
203	0xbc9abd1c	-0.018889003
204	0xbd935190	-0.07193291
205	0x3dbcd432	0.092201605
206	0x3cb4dfbe	0.022079345
207	0xbdb3a69d	-0.08772013
208	0x3e034a5a	0.12821332
209	0xbc5367e3	-0.0129031865
210	0xbdc5a9b5	-0.0965151
211	0x3b8f8814	0.0043802354
212	0x3dd614b8	0.104531705
213	0xbe00b750	-0.12569928
214	0x3d7c496c	0.061593458
215	0x3cb49ddb	0.022047928
216	0xbd2119ad	-0.039331127
217	0xbca9eba8	-0.020742252
218	0xbd730283	-0.059328567
219	0x3d8c1c89	0.0684138
220	0xbcc2e3a7	-0.023790194
221	0xbda81107	-0.08206373
222	0xbcb365f5	-0.021899203
223	0x3dae9c65	0.08525924
224	0x3b6ab518	0.0035813507
225	0xbd7cb191	-0.061692778
226	0xbcab8e86	-0.020941984
227	0xbc3d2c18	-0.011546157
228	0x3e07749a	0.13228074
229	0x3ca86926	0.020557951
230	0x3cd9980e	0.026561763
231	0x3de2108b	0.110383116
232	0xbcb17ca4	-0.021665879
233	0x3c4cbdd4	0.01249643
234	0x3dc5857a	0.09644599
235	0x3dc5a97f	0.096514694
236	0xbe021c9c	-0.12706226
237	0xbdb51342	-0.08841564
238	0x3dc60733	0.09669342
239	0xbd85992a	-0.06523354
240	0x3c1fe156	0.009758314
241	0x3e2144a2	0.15748838
242	0x3ca1fa52	0.019772682
243	0x3dcbaefe	0.099454865
244	0xbdc37d5d	-0.095453955
245	0x3d2c6e5d	0.042097438
246	0xbdb134dd	-0.08652661
247	0x3d756ab6	0.05991622
248	0x3dac956d	0.08426938
249	0xbde16874	-0.11006251
250	0x3de2d5bb	0.11075922
251	0x3d98e478	0.07465452
252	0x3de05999	0.109545894
253	0xbc9398c8	-0.018017188
254	0xbd8371f5	-0.0641822
255	0xbddcd542	-0.10782863

bias f4 [16]
0	0xbe0a57b0	-0.13510013
1	0xbcd6dd9c	-0.026228718
2	0xbd642676	-0.05570074
3	0xbd83e85c	-0.064408034
4	0x3dd650b2	0.1046461
5	0x3e17e36f	0.14832853
6	0xbdd0e2bd	-0.10199497
7	0xbd1fd462	-0.039020903
8	0x3d824486	0.06360726
9	0xbdc10e5f	-0.09426569
10	0x3cfb0b30	0.030644983
11	0xbdc97c75	-0.098381914
12	0x3cb7ff31	0.022460552
13	0x3d95d947	0.07316833
14	0xbdc12c78	-0.0943231
15	0x3da5e9a1	0.08101202
