models/MATBENCH/MEGNET/src/sae/model.blocks.0.conv.edge_func.layers.2.pkl (torch, 103240 bytes, 4 tensors)

weight f4 [192, 64]
00000000: 1417 f9bb 8a50 2cbd 581a d1bd bc2c 18bd
00000010: a713 ec3d b600 7fbc acec 5dbd 28ab ee3d
00000020: 58f5 6f3d e5f2 37bd 2a78 cc3c 5fd4 963c
00000030: dd8f cbbd 06ac 68bd ae7a 9f3d 126f c5bd
00000040: 9756 07be 5b7d 00bd 63cc 873d 319c e93d
00000050: 2094 dc3c 7fbb c73d 8edc b63d 3ef7 4c3d
00000060: 137d 723a 9753 02be 285e 1e3c f496 093e
00000070: a3fa da3d c7b2 083d f3d9 88bd b90b b5bc
00000080: b56b 653c 3785 dd3c 19f6 fe3c 5fda b7bd
00000090: 10ef a83d 1659 f4ba a307 693d 6e1b 14bd
000000a0: 8820 a3bd bac4 28bb c506 c83d 7d01 0b3e
000000b0: 2118 33bd 9cd4 c93d 6e1c b93c 5a69 4ebc
000000c0: b12b db3d da78 563c 5cc0 ff3c 530d b13d
000000d0: aa97 b3bc 1fb6 c9bd 2ebe 893b c669 f13c
000000e0: 81ac 15bd 4843 b2bd 5733 5dbc a12b 323d
000000f0: ed23 8a3d 4a63 ea3c e557 9e3c cb27 5cbd
00000100: 490a d03d 8b18 ce3d 39a5 823c 88ad 573d
00000110: c878 7cbc 4cdb 1a3b 08a5 19bd 5b13 423d
00000120: b08c b33d 8413 273d 9479 aa3c 632f ab3d
00000130: 3a47 ddbd a7ff 91bd af25 c23d 1731 6f3d
00000140: d04b 9bbd 3799 6fbd eae1 e5bd 0e30 c8bd
00000150: c35d d2bd 96a5 79bb 860e f53d dc0b 053e
00000160: 0807 dd3d 83b6 d0bd c1a8 023d 155a 613d
00000170: e988 e8bd 6ea7 fe3b c6ed 9dbc 48ec 093e
00000180: 64ce 013e 5005 b9bd a17b 8cbd 4e9f b2bc
00000190: 268e 803c 05b0 863d f82b 643c f61c a6bd
000001a0: 24d5 9c3d eab8 5bbd 4bde f73d 0fe9 a5bd
000001b0: 5dfa 7dbd dfea 6dbd 4399 593d a328 c9bd
000001c0: 1510 a43d 927c 9d3d 21f9 513c c528 b23d
000001d0: e5e9 d73d 1ca1 e9bd d71b 663d c228 a23d
000001e0: b8ba 5c3d c7c3 5abd c07f a3bd ec53 8dbd
000001f0: 47fe 92bd 8fed 223d f4ac 9439 2e44 233d
00000200: fbf8 0f3d f51e aebd 9729 debd 4426 963d
00000210: 36f7 ac3d 2eb0 b43d c787 263c ea5a 1c3c
00000220: 66be cabd bb99 b9bd 7b53 bebb fc22 093d
00000230: bac6 ec3d d4ad 4a3d 2446 83bd 50fc 29bd
00000240: c009 46bd 3a65 9f3d c74e a53d 23e0 62bd
00000250: 89b5 063e f68f c4bd 14be f53a 6dd9 963d
00000260: 1e98 213d f788 c93d 696a b6bc 3347 d4bd
00000270: 5b5b c53d 4d76 ecbc 3b6a 043e 3997 0c3e
00000280: 95d6 9bbd a5b8 b0bd 9f37 523c 638e 5cbc
00000290: 2b35 a43d 9f1d 923d 5d00 b33a bd88 133d
000002a0: ba4e 293d 12be 72bd 83a3 c5bd 8a20 8dbd
000002b0: 13e9 f0bd c9c0 163d 981a 6f3d 6e1c 63bd
000002c0: b25f 773d 37fa 39bd 747f 7e3d dfd8 a7bd
000002d0: 1856 e13d 8cb4 533b ce7b 053d 4f74 bb3d
000002e0: 5e2e 6fbc fe53 92bc 085d da3d 1b21 793d
000002f0: a08d 4bbd 94f5 923d 888f 0abc 9f9b f23d
00000300: 347e a13c 1121 803d eafc 853d e1fb ee3d
00000310: 5a9b aabd 5e4a 82bd 2be7 1a3d 6475 d7bd
00000320: f83d f83d c8b5 a33d 9488 be3d e195 9f3d
00000330: 5dfa 973d 5949 ecbc 55ff 353d 24e9 ac3d
00000340: 77c5 203d e68e 423d f1a7 e9bd ae31 723d
00000350: 1dd8 8dbc 5cd1 023e 886f 36bc 6e27 d53d
00000360: b292 df3d 5458 f7bc 340e a4bd 451c f63d
00000370: f543 8f3d abd5 2a3d 8de3 01bd f9d4 c93d
00000380: a76c a63c c151 94bd 65b3 5ebd b93b ffbd
00000390: fc87 073e 064a e8bd c061 8f3d c1e8 02be
000003a0: fce6 9abc a44f 29bd 1741 73bc 6940 ec3d
000003b0: ebaf a83c bead b0bd 6ac4 c43d 8e3d d73c
000003c0: 5eb3 0cbd 9d86 e93d 11fa 213d 6a36 d73d
000003d0: bfb4 ca3c a3e9 febb 9fbc 26bd 175b b0bd
000003e0: 4039 de3d 2cda 9c3d 5b98 aebd 326a 8abd
000003f0: a758 33bd 6bdc a23b cf40 90bd 8ca8 b13c
-0.007601628 -0.042068996 -0.10210103 -0.037152037 0.11527186 -0.015564134 -0.054180786 0.11653739
0.058583587 -0.044909377 0.024959642 0.018411813 -0.09939549 -0.05680468 0.07787071 -0.096403256
-0.13216625 -0.03136955 0.066307805 0.11406744 0.0269261 0.09752559 0.08928786 0.050040476
0.0009250205 -0.127272 0.009666003 0.1343649 0.106923364 0.03337362 -0.066821955 -0.022100316
0.01400273 0.02704106 0.031123208 -0.08977198 0.082487226 -0.0018642272 0.05689205 -0.03615897
-0.07965189 -0.0025752024 0.09766916 0.13574786 -0.043724183 0.09855005 0.022596564 -0.01259836
0.10701693 0.013090337 0.031219654 0.086451195 -0.021922905 -0.0984919 0.0042035794 0.029469382
-0.036541466 -0.08704239 -0.01350101 0.04349864 0.067451335 0.028611798 0.01932902 -0.053748887
0.10158212 0.10063275 0.015947925 0.052655727 -0.015409656 0.0023629246 -0.0375109 0.04738174
0.087670684 0.040790096 0.020809926 0.08358648 -0.10804601 -0.0712884 0.09479844 0.058396425
-0.075828195 -0.058495726 -0.1122473 -0.09774791 -0.1027179 -0.0038093082 0.11965661 0.12992805
0.10792357 -0.10191061 0.031899218 0.05501755 -0.113542385 0.007771424 -0.019278418 0.1346904
0.12676388 -0.090342164 -0.06859518 -0.021804478 0.015692782 0.06576542 0.013926499 -0.081109926
0.07657841 -0.053643145 0.12102946 -0.08101093 -0.062006343 -0.05808532 0.053124677 -0.09822204
0.0801088 0.076897755 0.012815745 0.086991824 0.10542659 -0.11407682 0.056178894 0.0791793
0.053889006 -0.053409364 -0.07983351 -0.069007725 -0.07177406 0.039777335 0.0002835762 0.039859943
0.035149556 -0.08501998 -0.108477764 0.07331517 0.08445589 0.08822666 0.010164208 0.00954316
-0.09899597 -0.09062525 -0.0058082915 0.03348063 0.115613416 0.04948218 -0.06409863 -0.04150039
-0.048349142 0.07782979 0.08071666 -0.055389535 0.13155188 -0.09597771 0.0018748664 0.073656894
0.03945171 0.09840577 -0.022267537 -0.10365143 0.09636565 -0.028865004 0.12931149 0.13729562
-0.07609288 -0.08628968 0.012830644 -0.013461682 0.080179535 0.07134556 0.0013656724 0.036019076
0.041334845 -0.059263296 -0.09650328 -0.06890972 -0.117632054 0.036804948 0.05837497 -0.055447035
0.060393997 -0.04540464 0.062133268 -0.08195662 0.11002749 0.003230366 0.032588772 0.091530435
-0.014598457 -0.017862316 0.106622756 0.060822587 -0.04969561 0.071757466 -0.008457072 0.118460886
0.019713499 0.06256307 0.0654238 0.11669136 -0.08330412 -0.06361841 0.037818115 -0.10520437
0.121211946 0.079936564 0.09303394 0.07792259 0.074208 -0.028843569 0.044432957 0.084429055
0.039250817 0.04749956 -0.114089854 0.05912941 -0.017314965 0.12775177 -0.01113499 0.10407911
0.10916652 -0.030193485 -0.080105215 0.12017111 0.06995384 0.041707676 -0.03171115 0.098550744
0.020315481 -0.07242156 -0.054370303 -0.12462563 0.13235468 -0.11342244 0.07001066 -0.12784101
-0.01890897 -0.041335717 -0.014847062 0.11535723 0.020591697 -0.08626889 0.096077755 0.026274469
-0.034350745 0.114026286 0.039545123 0.105084255 0.02474439 -0.0077793165 -0.040707227 -0.08611124
0.10850763 0.076588005 -0.08525153 -0.067585364 -0.043785717 0.0049701235 -0.07043611 0.021686815

bias f4 [192]
00000000: 7a41 dcbd c0dc d3bd d025 973d bc0b 8c3d
00000010: a9f5 d33d a375 2d3d 0b06 933c 19dc 6abd
00000020: ea83 c4bd 1014 8fbd c0fc 973d 0dbb a9bc
00000030: a6f3 88bc b8a6 b53a 0a51 593d 4d5c cfbd
00000040: e2be bd3d b513 4cbd 6ce9 16bd 8d83 02be
00000050: 842b 653d 2c89 94bd 26e3 a83d c182 d6bc
00000060: dfa2 0fbd cb8e 87bc 7f23 dc3d b056 9dbc
00000070: 5e12 f4bb 6f80 383d 2d07 803d 7ad7 e43d
00000080: bc1a 883c c625 a6bd 5b1f c8bc b17f c33b
00000090: 5a54 453d bdec 773d 04ab cbbd 9de5 94bc
000000a0: db27 e33c f3b3 f03c e71f 9fbd a65f 8dbd
000000b0: 8c8b cf3d 3ae4 4a3d 15eb 84bc 00a0 a7bd
000000c0: 56bb e9bc 33a7 87bc 0fc4 483d 52e6 903d
000000d0: 548e b03d 1571 bdbd ae90 8d3d 121c 903d
000000e0: fbf7 65bd cc98 4b3d af5a f1bd fbf9 d63c
000000f0: 6f5a 7f3d 1791 cc3d 0fb3 17bb f207 55bd
00000100: bb5d de3c 3bbc 44bc a436 43bd fd03 ee3d
00000110: a0bd bf3d 8618 73bd 2572 cd3d 32c1 6e3d
00000120: f4c5 ecbc 9248 7f3d e092 223b c5ce 193d
00000130: 233c da3d 3801 b23d cbdc 133d 535c 863d
00000140: 21e1 683d e08a 99bd 9807 bdbc 32a7 c3bc
00000150: 95da bb3c a922 8a3d e663 d13d 52e4 5cbd
00000160: be27 a33d 18e8 523c cfb1 febd f45a be3d
00000170: 58a5 d1bb 2837 9d3d 6011 f0bd 14ec b23d
00000180: 7cfe 803c 7433 cfbb 159e 053d 0b6a 5abd
00000190: 5c4f bf3d 2326 5b3d 4e28 00be 1e6b e3bd
000001a0: 5e43 6a3c 1d81 b73c e840 01be 741a debd
000001b0: b5a3 193d c8f0 b3bd cf22 b93d 4fd6 553d
000001c0: 30cf 84bd c5b7 fe3c 72eb 693d 84b5 0ebe
000001d0: 7747 a8bd c3ed e43c a016 a3bd 49bb a4bd
000001e0: 6bd8 a5bd 2c3e 4dbc 927b b33d 0bf7 da3d
000001f0: 5494 56bd 0784 47bd 43b1 d7bd 5c7b ef3c
00000200: b022 e8bd 8cc7 223d ccdd 3cbd 27ed ad3d
00000210: 0a50 d4bd d48e f2bd 4ecb 07bd 8389 c1bc
00000220: 8d9a 07be 8003 563d 3591 df3d 999e 29bd
00000230: dccf e6bd ded5 8e3d 026e 383d 3aac a8bd
00000240: eb77 293d d7c3 f4bd c4f1 eabd 787a 44bd
00000250: 7803 9bbd 34fa 1dbd 4318 00be 6e27 2ebb
00000260: 3b1e acbd b8f7 b0bd 6aa7 9b3d fc5d 08be
00000270: 796f 03be 1a35 bd3d 7c18 0fbd 3877 6a3d
00000280: ea54 f7bd 3e02 fcbb 3c67 3bbd d1e1 003b
00000290: 8de3 cbbd 03a0 6fbc f55c 943d 640c 6b3c
000002a0: a0a1 cabd 8fb6 01be 6876 fe39 e98d 38bd
000002b0: 84e6 70bd 8f97 ba3d 189b 433c 5ef2 15bd
000002c0: 5eee 8f3d 777a 58bd f081 953d c5e6 583d
000002d0: 2c65 083c 4ca6 71bd 3f53 d1bd 7c8f b53d
000002e0: 7c31 c9bd 02aa f8bd 1519 b33d 67a9 0abc
000002f0: 4e5c 8bbd 3892 aebd 346f 843d 71c1 803c
-0.10754676 -0.10344839 0.07380259 0.06838176 0.1034959 0.042348515 0.017947217 -0.057338808
-0.09595473 -0.069862485 0.07421255 -0.020719076 -0.016717743 0.001385889 0.0530558 -0.10125027
0.09264924 -0.04982348 -0.036843702 -0.12745495 0.055949703 -0.07252726 0.0824645 -0.026185395
-0.035067435 -0.016547581 0.10748958 -0.019206375 -0.0074484786 0.04504436 0.06251369 0.111739114
0.01661431 -0.081126735 -0.024429014 0.0059661497 0.048176147 0.060528506 -0.09944728 -0.018175894
0.027728966 0.029382681 -0.07769757 -0.06903009 0.10134038 0.04953406 -0.016225377 -0.081848145
-0.028531712 -0.016559219 0.0490151 0.0707518 0.08620897 -0.09250084 0.06912361 0.07036604
-0.056144696 0.049706265 -0.11784875 0.026242247 0.062342104 0.09988611 -0.0023147499 -0.05200953
0.027144304 -0.012007768 -0.04765953 0.116218545 0.0936234 -0.05934956 0.10031537 0.058289714
-0.028902985 0.062325068 0.0024806783 0.037550706 0.106560014 0.08691639 0.036099236 0.06560578
0.056855325 -0.074971914 -0.02307491 -0.023883436 0.022931376 0.06744892 0.10224132 -0.05392868
0.079665646 0.012872718 -0.12436258 0.09294692 -0.0063978843 0.07676536 -0.11722064 0.087364346
0.015746348 -0.0063232724 0.032621462 -0.053323787 0.093413085 0.053503167 -0.12515375 -0.11104415
0.014298288 0.022400433 -0.12622416 -0.10844889 0.03750964 -0.0878616 0.09039842 0.052206334
-0.064848304 0.031093488 0.057109304 -0.1393643 -0.08216756 0.027945405 -0.079633 -0.08043534
-0.08097919 -0.01252703 0.087638035 0.10691651 -0.05238755 -0.048709895 -0.10531857 0.029233627
-0.11334741 0.039741084 -0.04610996 0.08492499 -0.10366829 -0.118436486 -0.03315287 -0.023625141
-0.1324255 0.05224943 0.10916368 -0.041411016 -0.11270115 0.06974386 0.045026787 -0.082359746
0.04137413 -0.11951416 -0.114718944 -0.047968358 -0.07569021 -0.03856869 -0.12509255 -0.0026573795
-0.084042035 -0.086409986 0.07600291 -0.13317102 -0.12835492 0.09238644 -0.03493546 0.057242602
-0.12076743 -0.007690697 -0.04575275 0.0019665847 -0.09955511 -0.014625552 0.07244293 0.014346216
-0.09894109 -0.12667297 0.00048534875 -0.04505721 -0.058813587 0.09110939 0.011938833 -0.036608092
0.07027887 -0.052851167 0.07300174 0.052954454 0.0083249025 -0.058996484 -0.10220956 0.08865258
-0.098238915 -0.121418014 0.087450184 -0.00846324 -0.06804715 -0.08523983 0.06466523 0.01571724

weight f4 [64, 192]
00000000: 20ab 84bd f470 57bd efa2 5ebd 99df 933b
00000010: 64bf 2abd ec51 1d3d a522 093d d638 08bd
00000020: 0b24 7e3d dd22 2ebd 27f5 863d 0bbb 5fbd
00000030: 419b 963d 4839 0abd 6a6e 70b9 5d30 7b3d
00000040: d745 2fbd e652 9a3d 67c6 453c b80d 75bb
00000050: 9865 1ebc 5eea 1a3c 8902 143c 84d8 963d
00000060: 3bec 8ebb 5509 7bbd bb3b 993c a3f8 293b
00000070: c096 4c3c 0b31 c7bc 8af0 d33b 86ff 17bb
00000080: c015 323d 644a a43c 703e 263d 475e 2c3c
00000090: a0cf c63c 28ff 52bc a22e 8b3d 25ba 223d
000000a0: a03b 0cbd c69b 833d 75d2 a13d 5934 4fbd
000000b0: 4a33 12bc bf77 903d 02de 4e3d b54c 5fbd
000000c0: 68b0 433d 8de8 28bd 83b8 263d 1651 5fbd
000000d0: 2b43 74bd 4b61 70bc a592 ccbc 361d 66bd
000000e0: 3f3b 723d 34df 49bd 9c27 04bd d0ad 98bd
000000f0: a4bd 8e3d 152d 95bd 21c5 f23b 241c 73bd
00000100: 3576 07bd 944a 39bd 654b f73c 5674 0dbd
00000110: 29f4 023a d73c fabc e9c4 16bc 31f3 83bd
00000120: a9fe 73bd 1227 afba f3d5 5f3d 0b90 bfbc
00000130: 2fef 9d3d 026a a0bb 3667 723d 4017 60bc
00000140: b387 85bd 0b10 593d 2f93 9bbc 42d1 423d
00000150: 8965 373b 5205 17bd 5da0 313d 72e6 ce3c
00000160: f148 81bd 941c 803d fd33 043d 6f4a 263b
00000170: 4280 47bd 15f4 4abd 7d58 5e3d 90ae 70bd
00000180: 43a8 73bd a35b 273d 5a6e 1dbc 8fc1 2c3c
00000190: 53b8 83bd 5626 0a3a ab18 bebc fda4 773d
000001a0: 7b18 303d a8a5 1fbb 37d7 eb3a 25fa 06bd
000001b0: 5522 0dbd 5fd8 153d 868c 80bc 418f abbb
000001c0: e214 2abd c8c0 443d aace 64bd a527 44bd
000001d0: 0471 483d 676d 3bbd 2070 92bd c753 e93c
000001e0: 952c d33c dada d93c 5808 103d 93ae 7cbc
000001f0: 47af 5b3d 3245 95ba a7c8 023d e030 813d
00000200: 8de3 98bc b605 6c3d 7033 82bd d8e6 1dbd
00000210: 9b0b 5f3d cc82 b4bc 8f06 fd3c c35d a83c
00000220: 7593 d53c 964d 40bd c273 c1bc 28f5 013c
00000230: e1b4 4c3c 1923 1bbc a154 8c3d 9657 efbb
00000240: 06d3 983d d9b8 82bd f1f8 5abd 3744 3a3d
00000250: ca5c c73c 7bde f43c a639 a13c d7f4 e03c
00000260: f76a 2b3c ccff a2bb d5b8 cfbc 84a2 ce3c
00000270: f6cf 2bbd 5c90 863d 91d6 093c abce a0bc
00000280: 35b2 14bd f565 243d 2901 f2bb c655 49bd
00000290: a022 cf3c f956 783c 3c3a 823c a8f6 5c3d
000002a0: 64c2 51bd da63 59bd 65d9 353d 4adf 7abd
000002b0: 559e 5d3c 0825 873d 51ec 2bbc b9ba 86bc
000002c0: af32 4d3d 1b10 aebc e101 d8bc b36e bf3b
000002d0: 0bee bfbc eb55 d73b fd5e 83bd 6b00 1abd
000002e0: 6273 303d 76f7 9abb 341e 4e3d c47c 11bb
000002f0: 956f bc3c aa44 69bd b776 4f3c f8d5 2cbc
00000300: 50ad 0f3d d631 e53b 241b 283d f463 cc3c
00000310: 6316 dd3c f465 a83c b670 083d c54c 9dbd
00000320: 2141 953c 63c8 90bd e3f2 21bd 0f7a ec3b
00000330: 5d71 37bd 8eed e3bc 5db3 913b 0fd2 743d
00000340: e00d 87bd 3047 99bc bdf1 50bb d521 6abc
00000350: a333 cebc 2557 a5bd 08c3 45bb 3d19 18bd
00000360: ac2b 673d 6ae6 5cbc 6658 c7bb 9290 9fbd
00000370: 7515 933c a7cd b93c 784c 90bd 3820 5d3d
00000380: c55d 163d 3509 4a3c cb95 9bbc 1fc6 263d
00000390: 145a 183d fba0 233d 88a8 52bd a18e 9dbc
000003a0: dab0 74bd 6671 cebc 05fd 86bc 55bf f9bc
000003b0: 0a10 6dbd c284 85bd 7c47 423c 2d5b a93c
000003c0: 21ae 85bb 696b 8abd 9818 20bd 191b 46bd
000003d0: 6c3b 4fbd 7c1c 8abd 9922 293d eea0 b3bc
000003e0: 57f6 d2bb b3ca 863c caa7 a4bd 6e93 053c
000003f0: 0944 593c d3bf 4e3d fd23 d83c c516 86bb
-0.06477952 -0.052597955 -0.054354604 0.004512739 -0.04168643 0.038408205 0.033480305 -0.033257328
0.062046092 -0.042513717 0.06589728 -0.054621737 0.07353831 -0.033746034 -0.00022929316 0.06132542
-0.042791214 0.07535343 0.012071229 -0.003739221 -0.0096677765 0.009455292 0.009033808 0.07365516
-0.004361657 -0.061288197 0.01870524 0.0025935553 0.0124871135 -0.024315378 0.0064678835 -0.0023193075
0.043477774 0.020055003 0.04058689 0.010520524 0.024268925 -0.012878217 0.06796004 0.039728303
-0.03423655 0.06426196 0.079014696 -0.050587032 -0.008923361 0.0705409 0.050504692 -0.054516513
0.047775656 -0.041237403 0.040703308 -0.05452069 -0.05963437 -0.014671634 -0.02497227 -0.0561802
0.059138533 -0.04928513 -0.032264337 -0.07455027 0.06969765 -0.07283989 0.0074087535 -0.05935301
-0.033071715 -0.04523714 0.030187318 -0.034534775 0.0004995489 -0.030546589 -0.0092022205 -0.064428695
-0.059569035 -0.0013363084 0.054647397 -0.023384115 0.07711636 -0.0048954496 0.05918046 -0.013677418
-0.06520023 0.052993815 -0.018991081 0.047562845 0.0027984104 -0.03687031 0.043365825 0.02525637
-0.063127406 0.06255451 0.032276142 0.0025373956 -0.0487063 -0.04954918 0.054283608 -0.058760226
-0.05948664 0.040858876 -0.009608829 0.010544195 -0.064316414 0.0005269995 -0.023205122 0.06046008
0.042992096 -0.0024360213 0.0017993216 -0.0329534 -0.03445657 0.0365833 -0.015692007 -0.005235583
-0.04152382 0.048035413 -0.055861153 -0.04788937 0.048935905 -0.04575863 -0.071502924 0.028482331
0.025778094 0.026593614 0.035164207 -0.015422481 0.053633954 -0.001138842 0.03192964 0.0630815
-0.018663192 0.057622634 -0.06357467 -0.038550228 0.054454427 -0.022035025 0.030886916 0.020552522
0.02607129 -0.04694899 -0.023614768 0.007931985 0.012494297 -0.009468817 0.06852079 -0.007304142
0.074621245 -0.06382913 -0.053460065 0.04547521 0.024336237 0.029891243 0.01968081 0.027460499
0.010462514 -0.004974341 -0.02535669 0.025223978 -0.041946374 0.06570503 0.008412973 -0.019629797
-0.036302764 0.040136296 -0.007385392 -0.049154066 0.025285065 0.015157455 0.015896909 0.053946167
-0.051210776 -0.05307374 0.044396777 -0.0612481 0.013526519 0.0659886 -0.010493354 -0.016446458
0.050097164 -0.021247914 -0.026368083 0.005842054 -0.023428937 0.0065715215 -0.06414602 -0.037598055
0.043078788 -0.0047292067 0.050321773 -0.002219961 0.023002425 -0.05695025 0.012662581 -0.010549061
0.035077393 0.0069944663 0.04104151 0.024950005 0.026988214 0.020556428 0.033310615 -0.07680658
0.018219532 -0.07069471 -0.039538275 0.007216699 -0.044785846 -0.027823236 0.0044464306 0.05977064
-0.06594443 -0.018710703 -0.0031882368 -0.014290293 -0.025171107 -0.08073262 -0.0030176062 -0.037133444
0.056438133 -0.013482669 -0.006083536 -0.077912465 0.017954567 0.02268107 -0.07045835 0.053985804
0.03671052 0.012331297 -0.018992325 0.040716287 0.03719528 0.039948445 -0.051430255 -0.01923305
-0.05973897 -0.025200557 -0.016478071 -0.030486742 -0.057876624 -0.06519462 0.0118578635 0.020673359
-0.0040795957 -0.06758768 -0.039085954 -0.048365686 -0.05059378 -0.06743714 0.04129276 -0.021927323
-0.0064380574 0.016454076 -0.08039816 0.008152826 0.01326085 0.050475907 0.026384348 -0.00409207

bias f4 [64]
00000000: 7c66 e2bb abb0 8cbd b59e debc ca44 22bd
00000010: de48 24bc 3db9 45bc fd2a a8bc f3fe 55bb
00000020: df2c 31bd 6a75 083d 59f4 3d3d fb1c 363d
00000030: 5660 c53c 3c95 b1bc 8482 0dbd d0ae 853c
00000040: 43ca 5e3d 3850 a3bd 1250 3e3c 4d91 113d
00000050: b9c6 9ebd f5d9 46bd 14a1 1f3d 3e98 e8bb
00000060: 703f 25bd 9876 153d 0ae9 8cbd 850c 603c
00000070: fced 153c 51de b63c b28e 16bc ca38 483d
00000080: ba26 36bd 1b3d 133b ac21 3c3d d89d 533d
00000090: 79bf 3ebd 26f3 21bd b2d9 503d bfa0 1f3d
000000a0: ce2b 553d 1421 67bd ee6e adbd 24b9 fb3c
000000b0: c9a9 62bc 7a8a d3bc 3052 273a d432 1cb9
000000c0: 1098 19bd 9320 82bd b11e dcbc 4070 96bd
000000d0: 5465 b9bb 1420 69bc 0848 e83c b3ee 933c
000000e0: f48b 66bd 0f85 453d 3fd6 5cbc a19e 5c3d
000000f0: 91f5 90bd b827 c6bb 6eaf dbbc 0683 833c
-0.0069091897 -0.06869634 -0.027175287 -0.039616384 -0.0100271385 -0.01206809 -0.02052831 -0.0032653182
-0.043255683 0.0333151 0.046375606 0.04446123 0.024093788 -0.021677606 -0.034548298 0.016318709
0.05439211 -0.07974285 0.01161577 0.03553896 -0.07752747 -0.048547704 0.038971975 -0.007098227
-0.0403437 0.036490053 -0.06880386 0.01367486 0.009150978 0.022322806 -0.009189295 0.048882283
-0.044470526 0.0022466842 0.04593055 0.051664203 -0.04656932 -0.039538525 0.05098886 0.03897166
0.05204373 -0.05642803 -0.08468424 0.03072793 -0.013834425 -0.025822867 0.00063827913 -0.00014896254
-0.037498534 -0.06353869 -0.026870104 -0.07345629 -0.005657831 -0.014228839 0.02835466 0.018058157
-0.056285813 0.048222598 -0.013478815 0.053862218 -0.07078088 -0.0060472153 -0.02681705 0.016053688
